left_agent.pth (torch, 73958 bytes, 6 tensors)

model.0.weight f4 [128, 6]
00000000: c30e 6ebf b79c 573e 44c9 bb3f 6942 02c0
00000010: cef5 89bf 7d70 06c0 1fcd d2bf 68a9 0a3e
00000020: 6908 a5c1 3671 a23e c8e0 483f 4d53 06bf
00000030: 2cb0 a5be f4cc a83d 8832 2e3e c0fb e83c
00000040: d0c9 183d 88da 6dbd 6d56 1cbf 3f2f 4dbf
00000050: d88c 6c3e de46 513f 0844 a4be a161 59bf
00000060: 868c 2ebe ca9f 5bbf 5081 c5c0 b3c2 a7be
00000070: 2e0c ac3f 958f 11c0 e637 b2be 6d01 efbe
00000080: e29e 8dc0 d0f8 bebe 999b 5940 89c4 b63f
00000090: dc87 503f a08d 02be e3d8 113e 1e8f a1bf
000000a0: 2d95 2e3f 67c4 7fc0 9c17 76be 28ff 843f
000000b0: 66d0 c0bf f553 39bf 027f efbe b433 c9bf
000000c0: fa68 9f3e e077 4fbd 0d66 c3be 303b a0be
000000d0: 3812 dd3d f20a ac3e 979c 16c0 f530 863f
000000e0: 6087 8f3e ea0a 9abf b33d eebf f59d 50bf
000000f0: c326 ddbd 117c 22bd bec5 b93d 771a 6dbe
00000100: d234 3b3e b410 253f 644f 0b3f 62a4 0dc1
00000110: 92d3 813e 723b ae3e 7d13 fa3f fcda d6bf
00000120: bea1 4bc0 ab08 353f 0b5b 8ebf 415e 31bf
00000130: 37ef 8f3e 74cf 7ec0 c94d 113e 132c 093f
00000140: 41f5 bb3f f894 0dc0 d400 0ac0 7728 0cc0
00000150: d7df e23e 0376 55c0 6eb9 3f3f 87e0 733f
00000160: 7125 7140 41d1 a9be 2490 1ebe b0f2 db3d
00000170: e005 c6be 5018 cb3d 6e0c 2cbe 4dbb b5be
00000180: 54ba dfbf 5bcb a5bd 8d87 433e 4331 80be
00000190: 9db9 3ac0 3af2 8fbf f1a6 01bf 336a d1bd
000001a0: 88c9 18c0 7450 fd3d 9990 1b3f 86e8 783e
000001b0: 5ca7 f93d b998 75bd e456 b73e 6aef 03be
000001c0: 468f 2e40 316c 3ebd 08e6 c2bf 1ab4 ad3e
000001d0: 694e c7be f968 d03f af62 eabf 4cde 74bf
000001e0: ec43 83be af99 63be d09e 55be 5857 df3d
000001f0: 9878 6f3e bc23 323e 0648 363f 73f2 cebe
00000200: 8d8f d43e 52af eabe e17e e6bf 3415 c93e
00000210: 9077 d7bb 6f2d 12c0 b968 013f 30c2 5bbf
00000220: 15ee 1ac0 54fb 85bf 6336 25c0 8bfd ae3f
00000230: e1ac 143f 9d5d 13c0 16ef e0bd 1db3 0ec0
00000240: c8d4 543e fd0f 63c0 e604 8a3f c6c5 e7bc
00000250: 4c7f 7d3f 87bc f4bd e4cd bf3a 436d fcbf
00000260: fa3f 3f3f 64cf d13f c1ef d33f 55f4 463f
00000270: 17a3 ee3a a8f5 01bf 3db7 543f 53c8 f1be
00000280: 6fd0 6540 2a33 66bf 9be6 a8be 80be ddbb
00000290: c8cf b3be 1b8e c7be 3897 5c3e 2375 2bbe
000002a0: 11d5 93bf bc84 99c0 674d 483f 2e14 05c0
000002b0: 0396 0bc0 da02 85bf 8576 b63d 2b28 a4be
000002c0: dc19 d8be bd64 00be ce6e 33be 981d c33d
000002d0: dd9d 7dbd f5f0 603f adcf 15bc 7e68 37c0
000002e0: df51 be3e 8b99 ecbf e82f 00bf 3d15 10be
000002f0: 1138 3ec0 60a0 353e 3b31 2f3f acc5 013f
00000300: 591e 49be b00f b8bf bf57 593e 6fa2 85bf
00000310: 19f1 1b3d b55d 6bc0 727e 9dbf edf3 0ebf
00000320: a2f3 ab3f 6836 673f fb66 25bf 4641 8bbe
00000330: 9f48 ff3e 8cce 74c0 0029 b53f e29c bf3f
00000340: 1bc7 ea3f 9130 833f 2a43 a33c 6312 b9be
00000350: 0a73 86be 78a7 2a3e 23a8 423d d73f afbd
00000360: 4305 323e bf23 863e 1507 85be 1b0d a8bf
00000370: 142d bf3f 238e 41c0 0c19 273f beef 9fbf
00000380: 6c1e bebe b180 c4be 3cd0 ae3e aba2 593e
00000390: 8765 19bf a7d2 03bf 863b 783f 9a62 b8bf
000003a0: 4357 e43f ca2e 50c0 0d98 fbbd aa3e 5fbf
000003b0: 9aa8 f5be 6188 86be 827d 02c0 bc70 3e3f
000003c0: ec7d c0bd c00a 133e a0fa d83d 2013 e2bc
000003d0: e4cd 9bbd c045 223e 0d1c 2abf 9d3c 913e
000003e0: cb23 8cbf 61bc f0bf 6dfb 3140 5b34 c2bf
000003f0: 6954 f3be 98ce 85bf 0d3a be3e 323a 5bbd
-0.92991275 0.21055876 1.4670796 -2.0353034 -1.0778139 -2.1006157 -1.6468848 0.13541186
-20.629107 0.31726998 0.7846799 -0.52470857 -0.3236097 0.08242217 0.17011464 0.028440356
0.03730184 -0.058069736 -0.61069375 -0.80150217 0.23100603 0.8174876 -0.32083154 -0.84914595
-0.17045793 -0.85790694 -6.172035 -0.3276573 1.3441217 -2.2743886 -0.34808272 -0.46680775
-4.425645 -0.37299204 3.400122 1.4278728 0.81457305 -0.12749338 0.14242892 -1.2621801
0.68196374 -3.9963624 -0.24032444 1.0390368 -1.5063598 -0.72393733 -0.46776587 -1.5718904
0.31134778 -0.05065143 -0.38163796 -0.31295156 0.107944906 0.336021 -2.3533075 1.048369
0.2803297 -1.2034581 -1.8612579 -0.81491023 -0.10798409 -0.0396691 0.090709195 -0.23154627
0.18281868 0.6447861 0.54418015 -8.8526325 0.25356728 0.34029728 1.9537197 -1.6785579
-3.181747 0.7071635 -1.1121534 -0.69284445 0.28112194 -3.981412 0.14189829 0.53582877
1.468422 -2.2122173 -2.1563005 -2.1899698 0.443114 -3.3353279 0.7489232 0.95264477
3.7679102 -0.3316746 -0.15484673 0.10739648 -0.38676357 0.099167466 -0.16801617 -0.35494462
-1.7478738 -0.080954276 0.19094677 -0.25037584 -2.917579 -1.1245797 -0.5064536 -0.10225334
-2.3873005 0.12368861 0.60767514 0.2430745 0.121901244 -0.0599601 0.3580848 -0.12884298
2.7274947 -0.046489898 -1.522645 0.3392647 -0.3892701 1.6282035 -1.8311366 -0.956517
-0.25637758 -0.22226594 -0.20861363 0.109053314 0.23385847 0.17396444 0.7120365 -0.4041935
0.4151577 -0.45836884 -1.800747 0.3927399 -0.0065755323 -2.284023 0.5055042 -0.8584318
-2.4207814 -1.0467324 -2.5814445 1.3671125 0.5807629 -2.3025887 -0.10983102 -2.2296822
0.20784295 -3.5478508 1.0782745 -0.028292548 0.99022365 -0.11950021 0.0014633504 -1.9720844
0.74706995 1.6391416 1.6557542 0.7771657 0.0018206564 -0.50765467 0.830921 -0.47223148
3.5908468 -0.8992182 -0.32988438 -0.006767094 -0.35119462 -0.38975605 0.2154206 -0.16743903
-1.1549398 -4.797453 0.78243107 -2.0793567 -2.181031 -1.0391495 0.089093246 -0.32061896
-0.4220723 -0.12538429 -0.17522737 0.09527129 -0.06191813 0.8786767 -0.009143752 -2.8657527
0.37171838 -1.8484358 -0.500731 -0.14070602 -2.972172 0.1773696 0.68434495 0.5069225
-0.19640483 -1.4379787 0.21224879 -1.0440196 0.038071726 -3.6775944 -1.2304213 -0.5584095
1.3433726 0.9031739 -0.6461026 -0.27198237 0.49860093 -3.8251066 1.4153137 1.4969752
1.8342012 1.0249196 0.019929487 -0.3614684 -0.26259643 0.16665447 0.04752363 -0.08557098
0.1738482 0.26199147 -0.25981966 -1.3129 1.4935632 -3.0243003 0.65272593 -1.2495039
-0.37132585 -0.38379434 0.34143245 0.21253459 -0.59920543 -0.51493305 0.96965826 -1.4405091
1.783913 -3.2528558 -0.12284861 -0.8720499 -0.47980195 -0.26275924 -2.0389104 0.7439077
-0.09399018 0.1435957 0.10594678 -0.02759701 -0.0760763 0.1584692 -0.6644905 0.28366557
-1.0948423 -1.8807489 2.7809708 -1.5172228 -0.47525337 -1.0453672 0.37153664 -0.053522296

model.0.bias f4 [128]
00000000: 482c 8a3c c978 0cbf 7753 a5be 8104 97bf
00000010: 4760 1ebf 9869 5ebf 20e2 bf3e 2a37 813e
00000020: a045 bdbe e41e 2f3e a1cc 65be 317b bbbe
00000030: ed8f 9d3f 84e3 6ebf 9af3 70bf e290 b5be
00000040: 8915 c6be ebf3 fdbe a6ed 3dbf 99ec acbe
00000050: 2d34 7cbe e6de 9fbd 8258 8abf 796e c7be
00000060: fb75 89bf 65e1 21be d601 4dbe fa52 b9be
00000070: 3a33 6fbe 03a2 82be 4c3d 833f 8e7a 15bf
00000080: b5e6 48bd 3993 73bf c5b8 54bf e25c 7dbe
00000090: dccd bdbd 5109 19bf fc68 9c3f c6e4 1d3e
000000a0: 1972 c2be e652 f13e 17ff 96bf 05e5 dc3d
000000b0: b63f dcbe 189f 7dbe ccc6 0a3f ce3e 23be
000000c0: e1d1 a3bf f432 3a3d 2bec 67be 027e e6be
000000d0: 5e23 afbe e44d 6abe b2c1 1dbf ac63 2bbe
000000e0: 63fe 90bf b2bc 84bf 0c04 8c3f 1f41 833d
000000f0: 63cf bcbf 8ac6 1abf 1362 a23e b650 97bf
00000100: 1198 3fbf d387 80be a912 cfbe 02e3 103d
00000110: 30d9 aabd 4ff8 53be 4034 4fbf 84ac 14bf
00000120: fb7c 9ebe 4040 333d fe44 5f3d 0f11 8c3e
00000130: d08c 32bf d845 d7be 2ed1 b3be 824b cf3c
00000140: 3ebd 753c 0783 f4be bd03 ae3e ba67 693e
00000150: bbf1 4dbf fab6 f4be ded9 91bf 2a78 2dbf
00000160: 5a77 1fbf a035 193d 8280 c9be 256b 3abe
00000170: 3a9f cebe 7f58 0abf 0be0 cb3e 356e b4bf
00000180: 1a56 39bf ef09 17bf f373 adbe 8c78 1bbf
00000190: 374e b2bf 1069 1abf ddaa b1bf 5986 dfbb
000001a0: 0278 36bf 215d 5c3e 7ede bebe 949b 45bf
000001b0: 9f51 a0be fd2f c4be 9cde b7be fda4 47be
000001c0: e34b a2be 3e61 553e 8af0 a7bf 7f49 2f3f
000001d0: 6c53 02bf fb8e 4b3e 9ef3 e0bf 45d0 bbbf
000001e0: afac 023e 8a92 a5bf b08f babe 5dd0 11be
000001f0: 4fd4 23bf 1737 99be 6641 2f3f 026d 473f
0.016866818 -0.54871804 -0.3229024 -1.179825 -0.6186566 -0.86879873 0.37477207 0.252374
-0.36967182 0.17101628 -0.22441341 -0.36617425 1.2309548 -0.9331591 -0.94121706 -0.354621
-0.38688305 -0.49600157 -0.7419075 -0.3377426 -0.24629278 -0.078061864 -1.080826 -0.3895147
-1.073913 -0.15808637 -0.20020232 -0.3619612 -0.23359385 -0.2551423 1.0253081 -0.5839013
-0.049048144 -0.9514652 -0.83094436 -0.24742463 -0.0926778 -0.5977984 1.2219539 0.15419301
-0.37977675 0.4713356 -1.1796597 0.107858695 -0.43017358 -0.2476772 0.5420959 -0.15941927
-1.2798425 0.04545875 -0.22648685 -0.4501801 -0.3420667 -0.22881275 -0.6162368 -0.1673724
-1.1327633 -1.0370085 1.0938735 0.06408905 -1.4750789 -0.60459197 0.3171545 -1.1821506
-0.7484141 -0.25103626 -0.40443924 0.03537274 -0.083422065 -0.20700191 -0.809391 -0.5807574
-0.30954728 0.043762445 0.054509155 0.27356765 -0.6974611 -0.42045474 -0.3512053 0.02530456
0.014998732 -0.47756216 0.33987227 0.22793475 -0.80446976 -0.4779585 -1.1394613 -0.6776148
-0.6229149 0.037404656 -0.39355856 -0.18204935 -0.40355855 -0.54041284 0.3981937 -1.4096133
-0.72397006 -0.5899953 -0.33877525 -0.60730815 -1.3930119 -0.6031656 -1.3880268 -0.0068214354
-0.7127687 0.21519901 -0.37279123 -0.7719052 -0.31312272 -0.38317862 -0.35912025 -0.19496532
-0.31698522 0.20837876 -1.3120282 0.6847152 -0.5090854 0.19878761 -1.7574346 -1.4672934
0.12761186 -1.2935345 -0.3643775 -0.1423964 -0.6399583 -0.29924843 0.68459165 0.7790071

model.2.weight f4 [128, 128]
00000000: 30ed 96be 6339 4a3f 459c 923d 6fd3 1dbf
00000010: c992 bb3b 280b 57be a2b4 7e3d ea33 76be
00000020: 6343 96bd 47f1 83be 6e21 0ebe 0f15 f53e
00000030: 5afe 0ebf 5d26 18bf bef0 8abe c09e 38bd
00000040: 4629 debd 2b36 eebd 24ac bbbe e3bf 813e
00000050: 9458 8dbd a570 0abc 402a 803e c50d 553f
00000060: dd33 25bf f76f 57bf c423 153d 29fb 963d
00000070: 4a14 12bf 526e 313d 68e8 96bc 0e5c 47bb
00000080: 98ad 08bf c3de 31bf 1d1d 8bbe 4797 adbc
00000090: 98a4 6f3e 1e48 613e f0b5 96bd 1254 53bf
000000a0: a1ea 843d 6b2d 82be e1a0 82be 9474 cf3d
000000b0: efb1 1cbe a367 12be 8273 a33e 5270 a9bc
000000c0: 9473 e1be 8d67 dfbd a38c 6a3e 34b8 a6bd
000000d0: 14bc 8cbd f7e8 3dbe 83e2 b2be c245 393d
000000e0: 2fdd 6a3e 4204 ea3e e9f1 8ebe c96e 33bf
000000f0: 7ce8 02be a3da 623f be96 93be 5e6d 26be
00000100: fb01 04bf 39dd a03d 343e 8f3c 0d67 6cbe
00000110: 9fba 3abe 5871 75be 941c f7be 6fad 52bd
00000120: c97f acbc a58c 1b3d 86de acbe 9e54 d3be
00000130: 3744 57be 87d4 02be eff3 a43b debc 70be
00000140: 2cb5 38bc 608e d73e 4cd3 efbe 7fb9 35bd
00000150: 7f70 eabe dbbb c13e fd15 c9bd 436e 4bbe
00000160: 93fb 0abf 61d0 a4be 67df 7fbe 2a7c 8dbd
00000170: e8b0 67bc 4701 89be 123e 98bd 64d3 b23c
00000180: 19b8 6dbd 95e6 05bf f0b0 10be a52b 4a3e
00000190: e659 03be e894 50bd 035c efbe b8c5 873e
000001a0: e2dc 89bf 1979 e43b 9ca4 88bd 3e7e 4fbd
000001b0: e235 f8bd 4e76 24bf 4987 8ebd 90d2 05bf
000001c0: 54ec a3bc 305f 12bf 2448 90be 1c7d 01bf
000001d0: d59a 6f3d 61c7 01bd 82ed 54bf 6bd9 b2bf
000001e0: 51eb 7fbe 36e6 31bd 5772 78be 33c5 0ebf
000001f0: eaee 213d ef7e 933d 4c76 08bf 7c16 94be
00000200: 5723 81bf 2643 17c0 d018 5bbd da41 83bf
00000210: bc3a 94be f864 09c0 e207 13bf 413f ba3f
00000220: 8e92 383d 8f7b aac0 96f5 0f3e 2815 b73f
00000230: 7614 0fc0 ca8b a0c0 05f8 aabe 0059 543c
00000240: 1405 1b40 23fd 25bf 995b 8bc0 d07c 823d
00000250: c6ba fabc ac1d f83f cfe5 863f b061 b93f
00000260: 3789 b23f a7c6 c2bf a8eb 11c0 d0f6 eabc
00000270: 640f d63f 78cb c53c 1b22 08bf a04d 32be
00000280: d5ef d2be 933f 9bbf 607e 3ac0 626c 703e
00000290: 90fb 963f ad06 40c0 642a 5fc0 f93a df3e
000002a0: 7f7a ae3d 3206 0ac0 7d71 e63f c526 afbf
000002b0: 3928 723f 2baa 9bbe 0938 86bf 34be 4b3d
000002c0: baf7 133d 03aa 3ac0 0ff3 8d3d 1111 003f
000002d0: 42ef 7e3d 0d6b dcbe 5462 2740 43d2 203c
000002e0: 9578 fc40 b50a ca3d a520 cfbf 5617 6b3f
000002f0: 388d 98bf 5321 f5be 152f 98bf 0df1 233c
00000300: ff8c 96c0 e0c7 0d3c f4a5 cdbc 2840 a5bf
00000310: b75d 47c0 eec5 e23e f132 02be 6c0e 523f
00000320: 7eaf fabc a60c 90be b721 cb3e 4383 adbf
00000330: aa3d d4be aa97 f4bc 4226 e4bf eb66 9cbf
00000340: fa31 633f d129 c33f ac46 3e3e f08e 7e3e
00000350: 6882 e5bc b394 683e fbd6 59c0 b9e5 3ac0
00000360: b57c cc3f 0d15 11c0 6db4 5f3e fa3d 243f
00000370: 155f 4c3d d67a 5cbf d53c 0bc0 9160 e0bf
00000380: 3d70 543f 5261 a33f 27b6 e5be 4195 6bbe
00000390: e51f 82c0 def2 383e e0e9 43c0 1d27 a8bf
000003a0: c3ca 06c0 d757 5fbe e230 6a3d ed24 933e
000003b0: 394c 7ac0 fe3f 5a3f 64fa cc3c d515 32c0
000003c0: 465d fe3c 2250 e83f ecea 20c0 7585 c4bf
000003d0: 5061 72bd bf17 91bf 06d9 563e 76fb 913f
000003e0: 290e 0340 4a54 c7be 4c4b a93e 15d3 933c
000003f0: 57e0 49bf b351 953c 9839 20bf 45cf cb3c
-0.29477835 0.78993815 0.07158712 -0.6165075 0.0057242853 -0.2100035 0.062183984 -0.24043241
-0.07337072 -0.25770018 -0.1387994 0.4786763 -0.5585686 -0.5943354 -0.27136797 -0.04507327
-0.10847716 -0.116314255 -0.3665477 0.2534171 -0.069016606 -0.008449708 0.25032234 0.83224136
-0.6453226 -0.8415522 0.036411062 0.07372124 -0.5706221 0.0433181 -0.018421367 -0.003041986
-0.53389883 -0.6948053 -0.2717065 -0.021190299 0.23402631 0.22000167 -0.073589206 -0.82550156
0.064900644 -0.25425276 -0.25513366 0.101296574 -0.15302251 -0.14297347 0.31924063 -0.020683441
-0.44033492 -0.109084226 0.22905211 -0.08140603 -0.068718106 -0.185459 -0.3493844 0.04523254
0.22935937 0.45706373 -0.27918938 -0.7009092 -0.12783998 0.88614863 -0.28825945 -0.16252658
-0.5156552 0.07854695 0.017485715 -0.23086186 -0.18235253 -0.23969018 -0.4826399 -0.05143493
-0.021057026 0.037975926 -0.33763522 -0.41275495 -0.21022116 -0.12776385 0.005033962 -0.23509547
-0.0112736635 0.4210081 -0.46840894 -0.044366356 -0.45788953 0.37838635 -0.09818647 -0.1986628
-0.5429012 -0.3219023 -0.24987565 -0.06908448 -0.014141299 -0.26758787 -0.07433714 0.021829315
-0.058036897 -0.52304965 -0.14129996 0.19743212 -0.12827262 -0.050923258 -0.46749887 0.26518035
-1.0770533 0.006972444 -0.06672022 -0.050657503 -0.12119652 -0.6424302 -0.06959397 -0.5227442
-0.020010151 -0.57176495 -0.2818004 -0.50581527 0.05849727 -0.031684283 -0.8317491 -1.3972601
-0.2499211 -0.043432437 -0.24262367 -0.5576965 0.039534487 0.07201945 -0.53305507 -0.28923404
-1.008891 -2.3634734 -0.05349046 -1.0254471 -0.2895106 -2.1467876 -0.57433903 1.4550554
0.04506164 -5.327583 0.14058527 1.4303331 -2.2356238 -5.017064 -0.3339235 0.012960672
2.422185 -0.6483938 -4.3549314 0.06371462 -0.030606639 1.9384055 1.0538882 1.4482937
1.3948125 -1.5216874 -2.2800083 -0.028682142 1.6723447 0.024144873 -0.5317704 -0.17412424
-0.41198602 -1.2128776 -2.9139633 0.23478845 1.1795521 -3.0004075 -3.4869623 0.4359968
0.08519458 -2.1566281 1.8003384 -1.3683707 0.94592625 -0.30403265 -1.048585 0.04974194
0.036124922 -2.9166267 0.069311254 0.5002604 0.062239893 -0.43050423 2.6153765 0.009815755
7.8897195 0.098653235 -1.6181837 0.9183248 -1.1918097 -0.47876987 -1.1889368 0.010006201
-4.7047114 0.008653611 -0.025103547 -1.2910204 -3.115095 0.44291633 -0.12714745 0.82053256
-0.03060126 -0.2813465 0.3967416 -1.3555683 -0.41453296 -0.029857475 -1.7824175 -1.2218908
0.88748133 1.5247136 0.18581647 0.24859214 -0.028016284 0.22712974 -3.4037464 -2.9202712
1.5975558 -2.2669098 0.2184617 0.6415707 0.049895365 -0.8612493 -2.175588 -1.752947
0.8298376 1.2764075 -0.44865534 -0.23006155 -4.0663934 0.18061396 -3.0611496 -1.3136936
-2.1061256 -0.21810852 0.057175525 0.2873911 -3.9109023 0.85253894 0.02502174 -2.7825825
0.031050336 1.8149455 -2.5143385 -1.5353228 -0.059174836 -1.1335372 0.20981225 1.1404865
2.0477393 -0.38931495 0.3306526 0.018044988 -0.7885794 0.018227434 -0.6258788 0.024879107

model.2.bias f4 [128]
00000000: c9fb debe f3da 833e e13c 1fbe 5dce 10bf
00000010: 538f 2abe 1b09 0a40 a9cf 67be fb37 e1bd
00000020: e162 0abe 2cae 62bd b9b8 053d 0dc2 36bf
00000030: ad6e 9fbd ad87 62be 9c45 cbbd d57d 07be
00000040: f163 3ebe 7221 82bd 5f88 11bf ad46 f2be
00000050: 5135 c3bd af02 803e 1e59 c7bd 9ab1 863f
00000060: 9f64 fbbe 606a 2cbf f06b c0be 0ed7 14be
00000070: ba8b 03bf 10d1 33bf 87a4 a03e 1f5f 0abe
00000080: 6d59 84bd 1ce3 933e adf6 f0bd ecdb edbc
00000090: f21a bcbe 4953 adbd 2396 d6bd 3afe 11bf
000000a0: 7e33 7ebe 5d69 4b3f 18d6 a0bd 54ac 17be
000000b0: 8f27 febd 175e 2abf b115 9cbf c48e 87bd
000000c0: 02df ec3e cb54 32bf 45f6 cebc c8e1 babd
000000d0: f96c fb3d ac59 a6bd 204d 09be 9ee2 f1bc
000000e0: 0ecf 23be c9c2 b7be 8bed 33bf 1c41 71be
000000f0: fbad fcbd 101e bfbe b28b 91bf ed22 ccbc
00000100: c0bc 18be db41 0ebf c1ef 85bd 46e8 03bf
00000110: 9380 45bd e0d8 81bd 4e3c e8bd 3fbb bbbd
00000120: 7ce5 bebd 4f12 02be 5da3 0abe 1e47 6bbd
00000130: a466 91be cae3 89be a786 29bd edd6 d9bd
00000140: 6e1f 13be 65bb 52bf 26cb f2be 121e 62be
00000150: 303d 6b3e 8bdb 7cbe eae6 f2be a663 6ebf
00000160: 4535 bcbd 74bb c7be 6df8 08be 67e5 a3bc
00000170: ae3a a8be e7e5 e5bf f6b9 a5bd cef3 e2bd
00000180: da2e a43f 2cad 3ebe a88a a7bd 5e0f 36bd
00000190: e81f 3fbf 86c7 223e 4b58 b5bd 9269 9fbe
000001a0: b227 17be 9c23 65be 78c8 51bf 28a1 52bf
000001b0: cfe1 9fbd ed54 823f 95f0 d23d f148 f3be
000001c0: 7554 9dbf cabe 6abe c417 53be 8bd0 1ebf
000001d0: d5f5 843e 9a89 bb3d e7a9 fbbd 8f8e 16be
000001e0: 2c87 72be b787 03be bdc5 d73e 60cb 32be
000001f0: c2ea 81bd 85d0 0bbe 041b 72bd 4d08 29bf
-0.43551472 0.25752982 -0.15550567 -0.56564885 -0.16656236 2.1568058 -0.2263781 -0.109970056
-0.13514282 -0.055341884 0.03264687 -0.7138985 -0.077847816 -0.22122069 -0.09925386 -0.13231595
-0.18592812 -0.063540354 -0.5684871 -0.47319546 -0.09531654 0.25002047 -0.09733795 1.052295
-0.49100205 -0.67349815 -0.3758235 -0.14535162 -0.5138508 -0.7024088 0.31375524 -0.13512848
-0.06462369 0.28884208 -0.117658 -0.029035531 -0.36739308 -0.08463151 -0.10477855 -0.57028544
-0.2482433 0.79457647 -0.07853335 -0.14811832 -0.12409889 -0.6654982 -1.219412 -0.06619027
0.4626389 -0.69660634 -0.025263915 -0.091250956 0.12276644 -0.08122572 -0.13408327 -0.029527005
-0.15996954 -0.35890797 -0.70284337 -0.23559994 -0.12337872 -0.37327623 -1.1370757 -0.024918998
-0.14915752 -0.5556924 -0.0653987 -0.51526296 -0.04821832 -0.06340194 -0.11339627 -0.09166574
-0.093211144 -0.12702297 -0.1353888 -0.05744087 -0.2839862 -0.26931602 -0.04138818 -0.10636697
-0.14367458 -0.8231719 -0.47420615 -0.22081783 0.2297256 -0.24693124 -0.47441798 -0.931208
-0.09189848 -0.39010203 -0.13376017 -0.020006848 -0.3285727 -1.7960786 -0.0809211 -0.11081658
1.2826798 -0.18620747 -0.081807435 -0.04444825 -0.7465806 0.15896425 -0.08854731 -0.3113523
-0.14761236 -0.22376865 -0.81946516 -0.82277155 -0.078067414 1.0182167 0.10299794 -0.47516587
-1.2291399 -0.22924343 -0.20614535 -0.6203696 0.25968805 0.09157105 -0.12288266 -0.1470282
-0.23684376 -0.1284474 0.4214305 -0.17460394 -0.063436046 -0.13653763 -0.059107795 -0.6602829

model.4.weight f4 [3, 128]
00000000: 8e40 403e 9e88 b4be a019 18bc d993 e03f
00000010: aa10 efbc 9e7e babf 17be fe3e a1c8 1d3e
00000020: 4d63 d8bb d43e efbc fde5 a9bf 7721 683f
00000030: 7f82 413d efe3 2740 4300 98bd 25b9 e3bc
00000040: 6910 21bd fbf0 603d ebdf 6b3f 7560 bd3e
00000050: bf45 afbc d28f b73f 62f3 653d 95d9 00bf
00000060: 8180 4e3f 68c1 b33f b34c 83bf 023a 15bd
00000070: cbda f2be feae 513f 976e e63f a1ae 3dbc
00000080: c646 c0bc 6d9d 603f 9ffc 50bd 85ef 0cbd
00000090: ac28 9b3f b975 383d 5861 683c 2a60 773f
000000a0: 7495 a43f ac83 66bf bda9 8abd 9b2b 273c
000000b0: d22f 603d 06ca c3bf 8e6f 453f 8b42 5a3c
000000c0: a34a 02c0 14dd 1340 6a4c b3bf ac05 bdbd
000000d0: 4738 b93f b071 eabc d454 093b 243e 7dbc
000000e0: 4f86 33bd 8800 fc3f e883 3ebd 9b32 173d
000000f0: 76da 53bc 9d1a 303f 003d 813f fa66 a63c
00000100: 2312 883f 596b bebe 073c e13f 5ec6 12bf
00000110: b45f 0abc 0fbb d8bd a9cd 66bb 9162 523d
00000120: 8665 603c a167 003b caee de3c 8bd1 6fbc
00000130: 1d61 3e3f f292 b03f 14e5 5b3c 2ac2 733c
00000140: 5e5e 303c af61 0c3f 55c9 d23e 0009 8e3f
00000150: 9b11 523f f027 483d fa91 8cbf 7bbb 5c3e
00000160: b269 8cbd 3519 623f a355 a8bd fb8a 693f
00000170: d2d4 9cbf f683 403f 3892 ea39 72bd 383d
00000180: 7909 92be 9c36 c93d ce26 0d3e a397 4b3c
00000190: cd06 7dbd faec cf3f 8d72 2ebd 9f12 24bf
000001a0: 5379 673e 48ac 81bd 320a 4140 ca07 3e40
000001b0: 3dc4 e2bb 9ea1 2cbf c448 a7bf d98f 823c
000001c0: b02c 4a3f 9752 4e3f 6dda 5c3e bede b03f
000001d0: 35fc 2a3f f5c9 703e ef64 623d 5beb 48bd
000001e0: 3902 703f cffc 8dbc 88c6 b03f 6cfa 293d
000001f0: 9aaa 553d 4498 863c 2d08 0dbd bfb2 843e
00000200: 4050 1c3e bdbf e8bc 5c8b b7bd 4f2b 9dbe
00000210: 1523 e1bb 62e2 b9bf 8483 303f de6d 83bd
00000220: ee26 25bb a471 32bc 4a6c c6bf 343b 3340
00000230: 6692 dabc 0b1e 2640 f57c f03c 7e93 0fbc
00000240: 7916 b83b 3a73 583a 7f26 2e3f c507 bc3e
00000250: 54df 35bd 03d4 b53f 58e2 c43c 51da 00bf
00000260: 0451 393f 7794 a63f 9e00 90bf 0ee2 17bc
00000270: fd63 9a3e 833c 573f c86b 9d3f a542 223c
00000280: 69b8 943c 0e33 5f3f 3bd2 3ebb 8369 5e3d
00000290: 4510 513e 7135 95bc 5744 afbc 7152 533f
000002a0: be9e 803f ae07 30bf 421b 343c d912 b2bd
000002b0: c3da e23c 8bb4 b4bf 8a92 323f 24b4 c1bc
000002c0: e189 edbf 855e 1440 fe2b b0be d33c 23bc
000002d0: cfa4 d73f ac44 00bd 00f4 6dbd 4f34 4fbc
000002e0: ae0f 143d c351 0540 9107 243f cdaf ef3c
000002f0: 6ca8 143d 8a5d 583f 3d71 633f 39fb 633c
00000300: cdff 773f 6473 d7be d253 fd3f 8613 003f
00000310: a13f a4bd 7df5 f43c f9ab efbc 42f1 a73d
00000320: 35e0 afbd 3cb6 18bd f6a8 82bd 3360 193d
00000330: 5ef7 413f 10a8 ce3f 265a 0a3d 0fba 97bd
00000340: 5ec5 4dbd 8f69 0c3f 49c6 da3e eb29 8f3f
00000350: 88d0 783f c8ee e0bc c18e 90bf 5044 443e
00000360: 892e aeb9 e622 1c3f f273 a6bc 0c67 5c3f
00000370: bf8b 8fbf f851 163f 31bc 0ebd c804 5c3c
00000380: 277e 93be 6b4a 40bc c374 cc3d 6a9a b73d
00000390: 2229 3dbe 96be de3f afc3 393d 0b50 24bf
000003a0: 5de1 733e b892 a0bc 70ea 4840 8619 1040
000003b0: aaa2 1cbc 691f 26bf 83de a8bf 620c b5bc
000003c0: cf55 213f 0419 713f 99e8 773e d694 ba3f
000003d0: 5439 293f fe41 223f 8898 873d 82e8 9b3c
000003e0: e82a 5e3f b688 a03d 9216 cf3f 465e 8abc
000003f0: 2e55 5a3b e151 0fbd 253d 70bd 05f8 da3e
0.18774626 -0.3526048 -0.009283453 1.754512 -0.02918275 -1.456989 0.49754402 0.15408565
-0.0066036345 -0.029204763 -1.3273312 0.90676063 0.04724359 2.623287 -0.07421925 -0.027798245
-0.03932229 0.054917317 0.92138547 0.36987653 -0.021395562 1.4340765 0.05614031 -0.50332004
0.8066483 1.4043398 -1.0257782 -0.036432274 -0.4743255 0.8190764 1.8002499 -0.011577279
-0.023471247 0.8774021 -0.05102217 -0.03440811 1.2121787 0.045034144 0.014183365 0.9663111
1.285811 -0.90044665 -0.06770656 0.010203267 0.054733105 -1.5296028 0.77123344 0.013321529
-2.0358055 2.3103685 -1.4007695 -0.092295974 1.44703 -0.028618664 0.0020955103 -0.01545671
-0.04382926 1.9687662 -0.046512514 0.036913496 -0.012930503 0.6879061 1.0096741 0.020312775
1.0630535 -0.37191275 1.7596444 -0.57333934 -0.008445669 -0.105825536 -0.0035217798 0.05136353
0.01369608 0.0019593018 0.027213473 -0.014637361 0.74366933 1.3794844 0.013421316 0.014877835
0.010764686 0.54836553 0.4116923 1.1096497 0.82058114 0.048866212 -1.0982049 0.21555893
-0.06856097 0.8831971 -0.08219459 0.9122769 -1.2252448 0.75201356 0.000447409 0.045102544
-0.28522852 0.09824869 0.13784334 0.01242629 -0.061774064 1.6244195 -0.042589713 -0.64090914
0.22604875 -0.06331688 3.0162473 2.9692254 -0.006920366 -0.6743411 -1.3069081 0.015937733
0.7897444 0.8059477 0.21567698 1.3817976 0.6679109 0.2351454 0.05527204 -0.049052577
0.9375339 -0.017332463 1.3810587 0.041498587 0.05216465 0.016430028 -0.034431625 0.25917622
0.15264988 -0.02841174 -0.089621276 -0.30697104 -0.006870637 -1.4522212 0.68950677 -0.0641744
-0.0025200206 -0.010891352 -1.5501797 2.8004885 -0.026681136 2.5955837 0.02935646 -0.008763192
0.0056179133 0.0008256916 0.6802749 0.36724678 -0.044402435 1.4205326 0.02403371 -0.50333124
0.72389245 1.3014058 -1.1250188 -0.009270204 0.3015441 0.8407671 1.2298517 0.009903585
0.01815434 0.8718728 -0.0029117006 0.054299843 0.20416363 -0.01821396 -0.021394892 0.8254767
1.0048444 -0.6876172 0.010992827 -0.08695001 0.027692204 -1.4117597 0.6975485 -0.023645468
-1.8557702 2.318269 -0.34408563 -0.009963232 1.684717 -0.03131549 -0.058094025 -0.012646749
0.036147766 2.0831153 0.64074045 0.029258633 0.036293432 0.8451773 0.8884466 0.013914877
0.96874696 -0.42080224 1.9791205 0.5002979 -0.08019949 0.029902214 -0.029256808 0.08200313
-0.08587686 -0.037283167 -0.06379883 0.03744526 0.7576808 1.6145039 0.03377738 -0.07408535
-0.050237052 0.5484857 0.42729405 1.1184667 0.97193193 -0.02745761 -1.1293565 0.19166684
-0.00033222538 0.6099075 -0.020318959 0.8609474 -1.1214522 0.58718824 -0.034847442 0.013428874
-0.28807184 -0.011736493 0.09983208 0.08964999 -0.18472722 1.7401912 0.045352634 -0.64184636
0.23816438 -0.019601211 3.139309 2.2515578 -0.0095602665 -0.6489168 -1.3192905 -0.022100631
0.6302156 0.94178796 0.24209823 1.4576671 0.661031 0.63381946 0.0662089 0.019031767
0.8678422 0.078385755 1.6178763 -0.016890656 0.0033314931 -0.034990195 -0.058652062 0.4276735

model.4.bias f4 [3]
00000000: dff5 e340 c280 e440 72eb e440
7.1237636 7.1407175 7.153741
