left_agent.pth (torch, 73894 bytes, 6 tensors)

model.0.weight f4 [128, 6]
00000000: c525 cdbd f84f 2cbe 35cf 373e 3bc5 2abf
00000010: 4eec 2dbe 6226 01bf fd2b ab3e fab8 b3bd
00000020: eed2 e93e 75b2 c2bd 5b2e 163f 669f 05be
00000030: bed8 5e3e f752 0d3f 5601 d7bf 9a9e 1e3d
00000040: e2d8 09bf 9614 a0bc 54e1 f53c ae35 e4be
00000050: 6435 b53c 4fc0 473d c18b 883d b2e8 3bbf
00000060: e002 84be c6f4 dabe e1ea 21c0 c3c5 c3bd
00000070: 28a8 94bd 9073 0ebf 22ed d13e e44a 9b3d
00000080: d079 0ac0 e330 d2be bbc4 a33e 46b2 dcbe
00000090: 4e4b 693a d0d0 8bbe 22a1 3abe 0a54 0cbe
000000a0: 4efa d3be d3f2 183f e472 073f b8de 0d3e
000000b0: 16c0 bfbc a17b 3ebe f639 06bf 2280 a5be
000000c0: 570a 3cbf eb64 de3d c6b6 15bd a299 fa3c
000000d0: f87a 66be 1dcc 643e 0ccb 75be 522f 473e
000000e0: 1ac9 733e 436d 033e f89e c83e 28c9 1dbf
000000f0: 2aef acbe a902 09be f6af b6bd 3195 70be
00000100: f942 22bd 96c8 bbbe cd41 f73e 5682 25be
00000110: ee97 e03c 364b dc3e b2b4 7f3e fac4 a83e
00000120: 9e8c 97be 0ddd adbc 4b6a 363e 0406 66bd
00000130: d44d 053e 1b8d 1d3e 6894 dfbd eb91 063f
00000140: 816c 053f 8195 c1be 51f2 3a3e 50a4 1a3d
00000150: 48be 0fbf 44db ca3c 64fd e23e 674e 32bf
00000160: 42fd c93d 2523 83bc 1d18 2c3f 6d76 493e
00000170: 9b16 2a3e 32a8 ab3e 77ee 18bf bb23 bfb9
00000180: 00a8 6f3c 20b9 e03d ea54 65be 809e ffbb
00000190: 8767 a3be 80c4 f03c aa53 3b3e d912 45bf
000001a0: 0ace 8ebd 66c3 f53e 9fb5 fcbc f338 ef3e
000001b0: 80f6 a7be c848 483d efba 063f ac3b 783e
000001c0: 8d5c b33e 81c5 e4bb dd01 20bf 968e d4be
000001d0: 3839 c83e dd1a abbd 2c99 533e 7904 22be
000001e0: 74ed dc3d 20c6 2e3e 7fe4 45be 1713 ffbd
000001f0: 0ec4 6c3e cae2 a2be 7645 00bf d5a2 15be
00000200: f7ea c9bd b8bf 133e 960a 38bf 12e7 cfbe
00000210: 47e9 8dbe d120 5ebe 799d 483e 735c 523e
00000220: c300 803e 53dc 00bf 5a5f cdbf 7fe9 dcbd
00000230: 41e6 91bf a097 ba3c 8645 7ebe 9ec1 903e
00000240: 6b00 2cbc 20a9 e9be 6850 9d3e 948e f93d
00000250: 2713 893e df50 f93d 14f8 c3bd 60cd 4bbc
00000260: a804 633d 2049 72bd 08a6 98be 5ad2 a9be
00000270: b0bd 73be 812f 0dbf bfae 193e e0e0 5bbe
00000280: 932a ba3e 9833 ef3e 18ef d6bd d465 89be
00000290: 8a55 87be fd2f abbe 88d0 003e d0e4 0ebe
000002a0: c2db 85be f9b9 83be 3567 61be d89b fd3d
000002b0: 0069 543d 2817 463e 68d8 393d 071e ecbe
000002c0: d4ae c03e 8d1f b23d 4658 a7bd 0fa1 f6bc
000002d0: 227e f03e ce62 e3be b909 b3bf d72b ea3e
000002e0: 5000 733e dc28 d2be d8fd 8e3d e0f4 113e
000002f0: c812 24be 009b 9fba 245f 7b3e 4041 71bc
00000300: e285 67bc d7e1 09bf 9eef 863c 73a8 433d
00000310: 0bac c33e e9d5 4b3e 4208 92be 78a4 fcbe
00000320: 7333 7b3d 06c9 bd3d 3371 f7be edcb 33be
00000330: 3eb8 20bf 33ca 7ebd 4337 ebbe bab2 4c3e
00000340: 3016 94bd 7c16 6f3f b397 ac3d 0f27 a03e
00000350: c69d 8bbf 087d 7d3c 5473 8c3d 226f b73e
00000360: d1fb e93e 3a81 2b3e 552d a83e c246 a6be
00000370: 53de ae3a f0d8 2abf 3b98 e03e 3c6b 74bd
00000380: af2c 123e 69c5 8dbe 6d34 aa3e a2d9 bc3d
00000390: 6743 31be a193 8cbe 74b5 623e 56ec 9b3d
000003a0: 2165 81be 3892 9dbe dc37 0e3e 2a57 b5be
000003b0: b2f8 bcbe 4b73 c2be 5c40 3c3e 106d 633e
000003c0: 9087 313e e181 22bf cc66 ecbd c727 7e3d
000003d0: 771a 193d 2dd8 65bd 5d58 b03e cf83 4cbe
000003e0: 9356 21c0 9e97 dc3e b909 13bf a7a1 a6be
000003f0: d0a7 9e3c 948d 9dbe bec6 94be 80b7 2c3e
-0.100169696 -0.1682738 0.17950137 -0.667072 -0.16984674 -0.5044919 0.33431998 -0.08775516
0.4566874 -0.09506694 0.5866448 -0.13049087 0.21762368 0.5520472 -1.6797283 0.038725473
-0.5384656 -0.019541066 0.030014671 -0.44572204 0.022120185 0.048767384 0.06667281 -0.7340194
-0.25783443 -0.42764872 -2.5299609 -0.095592044 -0.07258636 -0.55645084 0.4100123 0.07582644
-2.1636848 -0.41052923 0.3198603 -0.43104762 0.0008899466 -0.2730775 -0.1822553 -0.13703933
-0.41401905 0.5974552 0.52909684 0.13854492 -0.023407023 -0.18601848 -0.5243219 -0.3232432
-0.7345328 0.10859092 -0.03655126 0.030590836 -0.22507846 0.22343488 -0.24003237 0.19451645
0.23807183 0.12834649 0.39183784 -0.61635065 -0.33776218 -0.13379921 -0.08920281 -0.23494412
-0.03961465 -0.36676472 0.4829239 -0.16163 0.027416196 0.4302613 0.24971274 0.3296278
-0.2959947 -0.02122357 0.17813985 -0.05615808 0.1301797 0.15385859 -0.10916978 0.52566403
0.5211869 -0.37809375 0.18256499 0.037754357 -0.5614972 0.024762757 0.44333947 -0.6965088
0.09862758 -0.01600797 0.67224294 0.19674082 0.16610186 0.3352676 -0.5973887 -0.0003645698
0.014627457 0.1097281 -0.22395673 -0.007800877 -0.31914923 0.029390574 0.18293634 -0.76981884
-0.069728926 0.4800064 -0.030848322 0.46723136 -0.32805252 0.048897535 0.5262899 0.24241513
0.35031548 -0.006981552 -0.62502843 -0.41515034 0.39106154 -0.08354733 0.20663899 -0.15822019
0.10787478 0.17067766 -0.19325446 -0.12454813 0.23121664 -0.3181365 -0.5010599 -0.14612897
-0.09859269 0.14428604 -0.7189115 -0.4060598 -0.2771704 -0.21692206 0.19591321 0.20543079
0.2500058 -0.5033619 -1.6044724 -0.10786723 -1.1398393 0.022777379 -0.24831209 0.28272718
-0.0104981465 -0.45636845 0.30725408 0.12185398 0.26772425 0.12173628 -0.095688015 -0.012439102
0.055424362 -0.05915177 -0.29814172 -0.33168298 -0.23802829 -0.5515061 0.15008067 -0.21472502
0.36360607 0.4671905 -0.10494822 -0.268355 -0.2643245 -0.3343505 0.12579548 -0.13954473
-0.26144224 -0.25727823 -0.22012027 0.123832405 0.05185795 0.19344771 0.045372397 -0.4611666
0.37633383 0.08697424 -0.08171134 -0.030106096 0.46971232 -0.4441132 -1.3987342 0.45736572
0.23730588 -0.41046798 0.069820106 0.14253569 -0.1602279 -0.0012176931 0.24548012 -0.0147250295
-0.014131041 -0.5386023 0.01647168 0.047768068 0.38217196 0.19905819 -0.28521925 -0.4934423
0.061328363 0.09266858 -0.48328552 -0.1755826 -0.6278113 -0.06220455 -0.459406 0.19990054
-0.072307944 0.93393683 0.08427372 0.312798 -1.0907524 0.015471704 0.068579346 0.35826975
0.45699933 0.16748515 0.32847086 -0.3247586 0.0013341404 -0.6673727 0.43866143 -0.05967258
0.14274858 -0.27689674 0.33243123 0.09221198 -0.17310868 -0.27456382 0.22139531 0.07613437
-0.25272468 -0.3077562 0.13888496 -0.35418063 -0.3690849 -0.37978587 0.18383926 0.22209573
0.17336869 -0.6347943 -0.115430444 0.062049653 0.037378754 -0.056114364 0.34442416 -0.19972156
-2.520909 0.43084425 -0.5743671 -0.32545206 0.019367129 -0.30772078 -0.29057878 0.16866875

model.0.bias f4 [128]
00000000: a795 653e 059f 2dbe ea02 0e3e cda8 3e3e
00000010: 9b57 d33d 69f0 ce3c 16e5 973d 338c 3a3e
00000020: f927 88be f122 9fbc 8573 6ebd 2c4e 01bf
00000030: ed7d 66be fe97 5dbe 00b6 423e aa15 dabe
00000040: 9a0c a9be 72f4 e83d 214c 27be def2 cf3d
00000050: e584 3abe 920f 973e 6cdf f43d 8c85 023e
00000060: 6cf3 eebe 1a33 87be dcee 523e 7e4d 04be
00000070: eced 5abe b347 a8bd 0e18 82bd 90f0 acbe
00000080: 4dcc d93d a39f 383e 4cdb 463e b36b 6a3e
00000090: a196 37be 39dc 98bd db59 00bd 735f 34be
000000a0: e039 123e 6faf c33d 99f9 c9be c255 f1bc
000000b0: 2b53 36be cd8f a73e 882f 133e d03f 103e
000000c0: c1d5 b1bd 2f38 0abd 5f06 773e 4a7f 9ebe
000000d0: a7a5 ab3d 5794 c93d 7104 72bd 57e4 1f3e
000000e0: 7ecd 373d 8e97 a13e ce61 093e 18b1 ffbe
000000f0: c462 9c3d 17ed 8b3e 8e79 1cbd 400e e7be
00000100: 526d 99be 9425 b6be 4175 47be 62d0 3f3e
00000110: 3567 aebe a69b a23e a63d 56be a7c1 123e
00000120: e7df 973d 625b acbe 0269 de3e 339a 94bb
00000130: d149 0e3e ab9c 50bc 4c40 453e ff15 633e
00000140: 88f8 82be 3368 d43e 2cab b3be 2308 2b3e
00000150: 8464 afbe ea1f 673d f8a9 95bd fa89 e8bd
00000160: ef1d f73c 5d2a 103d 454d ad3e 0464 b9be
00000170: 93bb 4abd effb 78be 1720 733e 63af 773e
00000180: a3ec 383d 142c eabd 7712 9fba 1465 e53e
00000190: ac2c 143e 5898 64be 3b14 cebe 9277 7c3d
000001a0: d110 9d3c 6301 213d 624a 19be c7e5 0bbd
000001b0: 2fea 0abe d632 c8be 0b73 66be 0cc6 93be
000001c0: 03bc ffbd 3b47 6d3e 0432 b33d 4587 60be
000001d0: 88f9 97be af44 043e 85fc 55be 241d be3e
000001e0: 8a66 02be 968b 5dbe 540c 7abe 6ed3 a5be
000001f0: e1a6 15bc e47d 063e 72bd ad3e 830f 74bc
0.22420369 -0.16955192 0.13868299 0.1861908 0.10319444 0.02526112 0.074167415 0.18217544
-0.26592997 -0.019425841 -0.058215637 -0.50509906 -0.22508974 -0.21640012 0.1901474 -0.42594653
-0.33017427 0.11374749 -0.16337635 0.10153745 -0.18214758 0.29504067 0.11956677 0.12746257
-0.4667009 -0.26406175 0.2059893 -0.12920186 -0.21379822 -0.082168005 -0.06352244 -0.33777285
0.106346704 0.18029647 0.19419593 0.22892646 -0.17928554 -0.07463879 -0.031335693 -0.17614536
0.1427989 0.09554946 -0.3944824 -0.029459838 -0.17805164 0.327269 0.143736 0.14086843
-0.086833484 -0.033744987 0.24123524 -0.3095649 0.08381205 0.09842747 -0.059086267 0.15614448
0.044873707 0.3156094 0.13416216 -0.499398 0.076360255 0.27329323 -0.03820186 -0.4512806
-0.29966217 -0.35575545 -0.19478323 0.18731835 -0.34063116 0.31759375 -0.20921955 0.14331685
0.07415753 -0.3366347 0.4343949 -0.0045349835 0.13895346 -0.012732665 0.19262809 0.2217636
-0.2558024 0.41485748 -0.3509153 0.16702323 -0.34256375 0.05642692 -0.073078096 -0.11354442
0.03016564 0.03519665 0.33848014 -0.36209118 -0.04949529 -0.24314855 0.2374271 0.24187998
0.04514755 -0.114341885 -0.001213624 0.4480368 0.14470166 -0.2232374 -0.4024981 0.06163747
0.019173058 0.039307963 -0.14969781 -0.03415468 -0.13565896 -0.39101285 -0.22504823 -0.28862035
-0.12487032 0.23171704 0.08749774 -0.21926601 -0.29682565 0.12916826 -0.2089711 0.37131608
-0.12734428 -0.21635279 -0.24418765 -0.3238787 -0.009134025 0.13133961 0.33933598 -0.014896276

model.2.weight f4 [128, 128]
00000000: 6608 703e 56d3 9abf 434d 05bd 407b e43d
00000010: a633 f83d 0092 2c3d 6858 bfbd 90da 483e
00000020: f9cb 72be 1423 58be ed44 9bbd 3648 86be
00000030: ea70 393d 7d1f 473e 51a5 48bf d759 52bf
00000040: 0461 8a3c 284c 023f ffb6 a8bf c040 3c3e
00000050: 9c00 70be b23b 983e b667 933d 2234 6dbf
00000060: 481f f13c 04b6 0a3d 2dba 37bf 1ea6 7e3d
00000070: f232 a0bd 68dd 073f 7f0d 363f 35cf 84bd
00000080: ffa6 34bf a825 a63d d29c 71bf 891b fdbc
00000090: b176 a6be ddf3 6cbf ebea 073e d433 8cbd
000000a0: c1dd 113c c8b7 ff3c a9d9 823d 2b4d 9ebb
000000b0: c247 a5be 4164 f73e 689c 563d db98 8f3d
000000c0: 35c5 84be df51 11be e484 6fbe bdaa dcbe
000000d0: e9be 4cbe a769 0d3e aa93 d2bc d23d 20be
000000e0: dd60 0bbc 242c 343d 7d6e 6e3c 61f5 db3d
000000f0: b34b 1d3d 29c5 bc3e b95c 39be 1857 b3be
00000100: 18b3 a2bd e1c9 a2bd 7f03 38bd edb4 6a3d
00000110: 1283 85bd c076 aa3e 45fe 933d 5ea4 723d
00000120: bd83 12be 261d 87be 36e9 be3e 9d39 513f
00000130: a99e cc3d d218 29bd 8591 60bf 4ca0 4e3d
00000140: 9361 11bf d482 f63e 9120 33bf ce74 1fbe
00000150: 619d e5bd 5a2d dabd 30ce 12bc 767f 7cbc
00000160: 17bf a9be 60cf 673d 9ea4 903e 17df 82bd
00000170: bbe6 11bf b30a 71bf 1dd7 53be 97e6 d63d
00000180: 62b8 2b3c 8e34 813e e01c f43c e93d 9c3e
00000190: ac59 8dbe 0024 9c3c ef83 903d 63a0 26be
000001a0: 892d 4bbf e5c0 81bd 441f cc3e 8111 ea3c
000001b0: 8ed1 03be 10ea e6bb c281 5e3d 1005 0f3d
000001c0: 42b2 77bf 827c a8bd 37ba 45bf 13c6 12be
000001d0: 071f 0a3d 3fd6 2fbf e99f a43d d230 c03d
000001e0: 97e1 28bd 587d bebe 5c51 cbbc b476 99bd
000001f0: ce04 cabe 62c1 ac3e 6f8a b83e b191 b5bd
00000200: 72a9 0bbe 56dc dcbc 7594 4abe 0795 80be
00000210: 4faa 8b3f 8b53 acbc cde0 ccbe 48b2 14be
00000220: 12df 6fbe 0c69 8fbd 0bce 553d 8f54 803e
00000230: 4691 6d3d ee46 b83d b227 ea3d 69dc bf3d
00000240: d80f 46bc e304 483f 88fa 733b cf82 403e
00000250: 8e81 573c d3e3 c7be 0c31 b4bd b7dd 5cbe
00000260: d5be 113d 828f 6cbd 58f6 443e 5c5b a73c
00000270: bf73 a8bd d8d8 123e cbe1 4f3f a204 5ebd
00000280: a597 343e 0d05 eabe 5946 0ebf 382e 223e
00000290: 9576 56bb 2184 19bd 1685 8bbd fd52 a03d
000002a0: 83a2 f4be a011 ed3e 318b 4cbd 1073 72bd
000002b0: a1fc 233e 8b8f 23be 402c 7b3e b90d 523d
000002c0: 00be 9ebe d3ca 513d 30b3 e5be 758d 01be
000002d0: 6645 a23d ff24 43bd 8111 283b 634a fb3d
000002e0: f1dd 8fbe 3e1a ffbd 35c4 cfbe ee4a 93bd
000002f0: 5aab 223d 3f3b 5dbf 7b88 323e bee2 b6be
00000300: f7e5 613d 40af f13b 5f07 80bf 047d c8bd
00000310: 9394 3abd 2f78 05be 0833 ea3c cd4a 9a3c
00000320: 9c54 1bbd 64c9 b83d 9832 513e 45e9 0f3f
00000330: 3343 81bf f476 9d3d 7403 71bd 4e41 1a3d
00000340: 8f89 c2bd 385a b33e 2073 3e3e 274f 9ebd
00000350: 15ad 653e a6e1 4abe 6b32 8bbd 1b29 63bd
00000360: 2950 8fbe 6967 473e ceae a3be 09ec 88bd
00000370: c39d c5be 5914 40bc f69e 473c eaf3 59bd
00000380: b060 9fbd a2d5 b3bd cf45 32bd 93d9 9c3d
00000390: eb77 45bd 609b a13c 515b 493e b472 07be
000003a0: fda4 1ebc 1241 903b a98a 653e d035 8dbd
000003b0: c1d1 d2bc 8116 963d 084b d13c 0238 593d
000003c0: ae6f d43e e2a9 143e 02aa 94bd c12b 93bd
000003d0: 4e5a 623d bb9d 40bd 201c 093b 2b43 80bd
000003e0: 9a10 4dbd 09a4 dcbe 8a24 8bbd ad46 3e3d
000003f0: 253f f6be 95fb 9a3e ce39 bfbd a5e4 fc3d
0.23440704 -1.2095745 -0.032544386 0.111563206 0.12119226 0.042131424 -0.09343034 0.19614625
-0.23710622 -0.21107131 -0.07581506 -0.26226968 0.0452737 0.19445606 -0.7837725 -0.82168335
0.016891964 0.50897455 -1.3180846 0.18384075 -0.23437732 0.29733044 0.07197516 -0.92657673
0.029433861 0.03386499 -0.71768457 0.06217014 -0.07822217 0.53072214 0.71114343 -0.06484834
-0.70567316 0.08112651 -0.94379914 -0.030896919 -0.3251243 -0.92559606 0.13273208 -0.06845823
0.008902968 0.031215563 0.06389172 -0.0048309765 -0.3228131 0.48318675 0.052395254 0.07011577
-0.25931707 -0.14191388 -0.23390538 -0.43099013 -0.19994701 0.13809834 -0.025705177 -0.15648583
-0.008506981 0.04398741 0.01455271 0.10740162 0.03840227 0.3686917 -0.18101777 -0.35027385
-0.07944316 -0.079486616 -0.04492521 0.05730145 -0.0651914 0.33293724 0.072262324 0.059238784
-0.14308067 -0.26389426 0.372873 0.81728536 0.099911995 -0.041283436 -0.87722045 0.05044584
-0.5678951 0.4814669 -0.6997157 -0.15571901 -0.11211658 -0.106531814 -0.008960292 -0.015411248
-0.33153602 0.056594253 0.28250593 -0.06390207 -0.5699269 -0.9415695 -0.20687528 0.104932
0.010480972 0.2523541 0.029798925 0.30515984 -0.27607477 0.019060135 0.07056414 -0.1627212
-0.79366356 -0.0633562 0.39867604 0.0285728 -0.12872908 -0.0070469454 0.054322965 0.034916937
-0.96756375 -0.08226873 -0.77237266 -0.14333372 0.033720996 -0.6868629 0.08038313 0.09384312
-0.041230764 -0.37205005 -0.024819069 -0.07493344 -0.3945679 0.3374129 0.36043116 -0.08865679
-0.13638857 -0.026960533 -0.19783194 -0.251137 1.0911349 -0.02103593 -0.4001526 -0.14521134
-0.23424938 -0.07002458 0.05219845 0.25064513 0.05799987 0.08997904 0.114333525 0.09368212
-0.012088738 0.78132457 0.0037228186 0.187999 0.013153447 -0.39041004 -0.087984174 -0.21568953
0.035582382 -0.057754047 0.19234598 0.020429306 -0.08225202 0.14340532 0.8120391 -0.054203637
0.17635973 -0.45706978 -0.5557609 0.15837944 -0.003272449 -0.037479524 -0.068124935 0.07828329
-0.47780237 0.4630251 -0.04993743 -0.059191763 0.16014339 -0.15972726 0.24528599 0.05128262
-0.31004333 0.05121882 -0.44863272 -0.12651618 0.07923393 -0.047642704 0.0025645199 0.122700475
-0.28099015 -0.12456177 -0.40579382 -0.07192026 0.039714195 -0.8641853 0.17434876 -0.35719866
0.055150952 0.0073756278 -1.000225 -0.0978947 -0.045551848 -0.13034128 0.028588787 0.018834496
-0.037922487 0.09022787 0.20429456 0.56215316 -1.0098633 0.07688704 -0.058841184 0.037659936
-0.094988935 0.3502977 0.18598604 -0.07729941 0.22429307 -0.1981264 -0.06796726 -0.055459123
-0.27990845 0.19473042 -0.31969303 -0.06685645 -0.38596925 -0.011723601 0.012183895 -0.05321113
-0.077821136 -0.087809816 -0.043523606 0.076586865 -0.048210066 0.019727409 0.1966374 -0.1322735
-0.009682891 0.0044022882 0.22416176 -0.068950295 -0.025734784 0.07328511 0.025548473 0.05303193
0.41491455 0.1451793 -0.07258989 -0.0718608 0.055261903 -0.047025423 0.0020921305 -0.06262811
-0.05006466 -0.430939 -0.06794079 0.04645412 -0.4809505 0.30270067 -0.09337197 0.12348298

model.2.bias f4 [128]
00000000: 332a 3a3e 6e6f a1ba dd91 bdbd 3403 b0bc
00000010: 46d8 ea3a f2ed adbd 2adc 10bd acf6 99bd
00000020: df0a 1fbc 19fd 3a3d 8407 09bd 1ef6 023d
00000030: b395 8b3c 5ef4 5cbd 003e 3abd 11be 52bd
00000040: e938 d13b b5ed 003e cb59 e23d 575f 72bd
00000050: 9e4a d3bd f25b 843e c5e0 e53d db45 b5bd
00000060: ad35 0dbc 7ae5 e03d 1382 d1bd 6b83 a43c
00000070: cb67 80bc c32a 93bd dd1d b0bc 529b e0bd
00000080: 4c58 fdbc 0705 93bc 6c8a 5fbc afc0 0bbe
00000090: e8aa 793d 7826 41be f250 6e3d 2983 5d3e
000000a0: 8847 343e 3dd3 fa3d 30e5 0ebd 0492 9f3d
000000b0: b09d 6abd c999 e9bb 1829 113e 274c 8cbd
000000c0: 5f92 fabc 3248 3f3b 35d6 52bc 95b6 803d
000000d0: 637f 73bb 7bb6 283e 6a09 05bb 86c5 ddbd
000000e0: 9647 97bd 5c5f afbc 563d 92bc f12a 7b3d
000000f0: 6c22 97bd 4a96 b7bd c7d1 8bbd 7fd8 1bbb
00000100: 3808 2c3d fd7e 0fbe 799c f1bc 1ad1 6ebd
00000110: 6edc 643e 967d 813d cf2e cebd d67e 57bd
00000120: 60c3 053c a458 01bd 7c75 d6bd 7c8b 60bd
00000130: b03e b5bd ff11 6fbc 7c94 12bd 1506 b43c
00000140: 6b0c f5bc 59e5 93bc eb8e 73bd 50d5 ef3b
00000150: dca6 b1bd 16b4 6e3c c6f9 c2bd f374 a8bd
00000160: f254 233d c125 a4bd c30c db3c c492 06be
00000170: 71eb e23b 530b 5bbd 5645 d9bd 76fb bc3c
00000180: 06ad 9b3b fe45 c3bd c40b ed3d d4fd b03d
00000190: 1be3 9c3d ed75 5fbd edb3 8c3a ed91 e2bd
000001a0: 6d6d b9bd 4e6e 08bb 8da6 c73c 313d 9fbd
000001b0: a6ca 31bd e262 edbd 49f9 c63d a088 313e
000001c0: b839 04be 7fb1 a3bd 31b7 9a3c fee3 23bd
000001d0: e9a7 6a3c 9458 8fbd 146d 04be f67a 78bd
000001e0: b008 d7bc f705 c9bc c54f 89bd 4431 1cbd
000001f0: 985c d4bd 10d4 95bc daae b1bd 3168 14bd
0.1818016 -0.0012316534 -0.09256337 -0.021485902 0.0017917238 -0.0849265 -0.035366215 -0.07517752
-0.009707182 0.04565153 -0.033454433 0.031972997 0.017039156 -0.053943984 -0.045469284 -0.051450793
0.006384958 0.12590678 0.11052283 -0.059172954 -0.103169665 0.258514 0.11224512 -0.088512145
-0.008618754 0.10981269 -0.10229888 0.020082196 -0.015674492 -0.071858905 -0.021498615 -0.10967125
-0.030925892 -0.017946733 -0.013643842 -0.13647722 0.060954005 -0.18862331 0.058182664 0.21632065
0.17605412 0.12247322 -0.03488654 0.07791522 -0.05727929 -0.0071289283 0.14175832 -0.068504624
-0.030587373 0.002918732 -0.012868454 0.06284825 -0.0037154786 0.16475861 -0.00202998 -0.1082869
-0.07386701 -0.021407776 -0.017851513 0.06132025 -0.07379612 -0.08964212 -0.06827121 -0.0023780165
0.042000026 -0.14013286 -0.029493557 -0.058304884 0.22349712 0.06322782 -0.10067522 -0.052611195
0.008164257 -0.031578675 -0.10471627 -0.054820523 -0.08849847 -0.014591693 -0.035786137 0.021975556
-0.029913148 -0.018053697 -0.05946247 0.00731913 -0.08674404 0.014569303 -0.09520297 -0.08225431
0.039875932 -0.080150135 0.026739484 -0.13141924 0.0069250395 -0.053477596 -0.10608928 0.023069125
0.0047508506 -0.09534834 0.1157451 0.08642164 0.076605044 -0.054555822 0.0010734774 -0.110629894
-0.090540744 -0.00208177 0.02437141 -0.07775343 -0.04340615 -0.11591126 0.09715516 0.17337275
-0.12912643 -0.07992839 0.01888618 -0.040012352 0.014322259 -0.06999317 -0.12932235 -0.06066414
-0.02624926 -0.024538977 -0.06704668 -0.03813292 -0.10369223 -0.018289596 -0.086759284 -0.036232177

model.4.weight f4 [3, 128]
00000000: 3eeb a43e fa93 f73c 87d1 a43e aa33 debc
00000010: 57aa 78bc f1f2 36be 8bd4 34bc 6977 143c
00000020: 5786 2d3c 7e77 d03d f0d0 103e 9471 0a3e
00000030: 2cb5 9e3c 0456 09bd fe4b 65bd 7e5d fe3c
00000040: 0e7c 1d3e 5c70 263e c3e7 0a3e b7be 8a3c
00000050: 6c2f 303d ca90 423e d565 5b3e 8c3e d93c
00000060: 9116 debc 9353 b33d 9d27 aa3c cf54 143e
00000070: b6ee 6dbd f164 4fbe 6cfa 9abd 8289 953c
00000080: 120d ebbb c17d c83d 11e7 323d 4b64 953c
00000090: bca2 e83d d4d0 313e 90cc 0c3e 5ffd 673e
000000a0: 6d50 6c3e 7f07 353e 3779 4e3d f9c5 af3d
000000b0: 361a c4bc 3b59 063e e57e 8b3e 415c 3dbe
000000c0: 9106 1a3d b606 3d3d 20b7 59be 02e4 b13d
000000d0: f97b 5bbd 5900 c03e e91d 35bc 94e8 1fbd
000000e0: 8086 ea3b 9cbd cfbd ec02 bebc 2198 003c
000000f0: 33d4 c7bb e6e5 103e 69d5 8c3c 3f1a 353e
00000100: c0aa afbb d1fe ca3b 605c 123c a0c5 0b3b
00000110: aaec f93d f352 3b3e 7ab3 81bd e190 d43c
00000120: 8dc8 22be 7f25 833d 5be4 31bd 2d73 9cbd
00000130: 338a 0cbc 2472 8cbd e812 88bc 5fad 343e
00000140: 913e 923e cc4f eb3d 1c3a 53bd 0563 4dbd
00000150: e299 3d3c 4f33 233a 96ec 0b3c 9bad 7b3d
00000160: 7c0a a83d cc32 dbbc 4f65 5abc 24ae 623c
00000170: 50fb 953d 0fce 4dbd f790 e7bb a672 d1bd
00000180: d553 9e3c c37b da3a 1f16 033f b31b 7dbd
00000190: 5be5 a3be 70e7 5fbd db9c 36bc 1e43 153b
000001a0: af98 15bc b554 98bd dd54 9a3d 976b a8bd
000001b0: 36fb bebc 00cf 6cbc 79a9 d43d 5957 f83d
000001c0: 9023 5abd c58e 553d ce97 a1bd 2fd4 94bd
000001d0: 4600 a8bd 005d 053b d10f 6bbd ade2 a1bc
000001e0: e08c 6ebd b611 873c 0fbd 483b 8729 983b
000001f0: f321 f8be c734 d5bb 9db1 6abd 5b15 8b3d
00000200: f360 9a3e b093 233d 5324 8f3e dacf 0f3b
00000210: c737 fbbc 9c64 83bd 73e9 06bd 52b1 e53b
00000220: a4de 91bd 32c2 473e 5429 d33d e6b1 0a3e
00000230: e94c b23c 8947 afbb 1040 eb3c f689 1cbc
00000240: f1a0 183e 0dba 0c3e f2a6 e03d 65c4 2d3c
00000250: 156e b23c dfc7 343e 4a25 473e 44c3 e63b
00000260: 600b 9e3d 87bf 113e 5058 8a3c 58cc de3d
00000270: b7a2 243c d1bc 2cbe 0aec 103c 20e9 44bc
00000280: 0277 103d 4612 8d3d 758f 37bd 1a6e bb3e
00000290: 573a 8f3d 369f fe3d 3707 eb3d 63b6 4f3e
000002a0: 258f 483e d8d4 2f3e 0ec6 1a3d a667 033e
000002b0: 9f88 acbb 3be4 e03d 2f27 903e 0854 29be
000002c0: 293a 75bd 2e4f 963d 757d 81be a1c7 cb3d
000002d0: 7ac4 813c 5cd1 d03e 1be3 3dbd 02f5 f33b
000002e0: 660c 4c3d add9 d9bd ab14 c6bc 737b a4b9
000002f0: d810 c93c 3455 063e 1404 20bd 0c31 3b3e
00000300: 005d 40bb 47e2 803d bec1 093b 70bf 9f3c
00000310: a5bf 3c3e 4816 2f3e f8e4 f3bd 557c 993c
00000320: c31a 47be 5361 613d ffc8 0dbd 3af4 30bc
00000330: a509 07bd 990e 0fbe 0163 a73c 52bc 9d3d
00000340: 6432 a23e d96b f33d c360 d13c 8f6a e8bc
00000350: c447 8ebb 3cdb 56bd 6f7b a13d f836 5e3c
00000360: 029f ed3d 344e 8fbd 9433 03be 6470 99bd
00000370: 8f2b ee3c e786 aabb c10e 98bd 23b8 983c
00000380: 4dbd 823d e3a4 b53a 7e74 e63e d09a d1be
00000390: 9ebd 8ebe 3420 adbd 8a53 5ebd e6a0 e33d
000003a0: 738b 16bd 0403 533d ae44 94bd fa17 4dbd
000003b0: 34ef 0f3c efa0 8abd 1775 aa3d 9d64 3c3e
000003c0: ec0d 03bc 7829 6f3c 8996 89bb 751c 83bd
000003d0: c815 5f3d 1098 88bd 1571 8d3b 5a38 77bd
000003e0: c1dc 07bd b261 c93d a622 8abb 43fe d83b
000003f0: 891f 83be 32e8 2abd f9b7 963d b2b2 383d
0.32210726 0.030221928 0.32191107 -0.027124245 -0.015177331 -0.17866112 -0.011037002 0.009061673
0.010591111 0.10179041 0.14142203 0.13519889 0.019373499 -0.033529297 -0.055980675 0.03105044
0.15379354 0.16253799 0.13564973 0.016936643 0.043013975 0.19000545 0.21425565 0.026519082
-0.02711037 0.08756175 0.020770842 0.14485477 -0.05808898 -0.2025335 -0.075672954 0.018254045
-0.007173189 0.09789611 0.043677393 0.0182363 0.11359164 0.17364818 0.1374991 0.22655247
0.23077555 0.17678641 0.05040857 0.08582682 -0.02393828 0.13119976 0.2724525 -0.18492223
0.03760392 0.04614898 -0.21261263 0.08686067 -0.053585026 0.37500265 -0.011054494 -0.039040163
0.007157147 -0.10143587 -0.023194753 0.00784877 -0.006098294 0.141502 0.017191606 0.17685793
-0.005360931 0.0061949273 0.008933157 0.002132751 0.12203343 0.18293361 -0.063330606 0.02594799
-0.15896817 0.06403636 -0.043430667 -0.076391555 -0.008577871 -0.06857708 -0.016610578 0.17644261
0.2856336 0.114898294 -0.05156909 -0.05014326 0.011572333 0.0006225602 0.008540293 0.06144486
0.08205125 -0.02675762 -0.013329818 0.013835464 0.07323325 -0.05024534 -0.0070668417 -0.102269456
0.019327084 0.0016668964 0.5120563 -0.061793994 -0.32010922 -0.054664075 -0.011145796 0.00227756
-0.009130641 -0.074380316 0.07535718 -0.08223646 -0.023313146 -0.0144536495 0.10383887 0.12126035
-0.05325657 0.05213811 -0.078902826 -0.07267033 -0.08203177 0.0020349622 -0.05738813 -0.019761408
-0.058239818 0.016487937 0.0030630266 0.0046436223 -0.484634 -0.0065065357 -0.05729829 0.067911826
0.3015209 0.039935768 0.279574 0.0021943958 -0.030666245 -0.06415674 -0.03293748 0.0070096636
-0.071225435 0.19507673 0.10310617 0.13544425 0.02176519 -0.005349104 0.02871707 -0.009554377
0.14905144 0.13742848 0.10969342 0.010605906 0.021781007 0.1765437 0.19447818 0.0070423204
0.07717013 0.14233218 0.016887814 0.10878819 0.01004856 -0.16868903 0.008845339 -0.012018472
0.035269745 0.06888251 -0.044814546 0.36607438 0.06993549 0.12432711 0.114759855 0.20284419
0.19585855 0.17171037 0.037786536 0.12832507 -0.00526531 0.109810315 0.28154895 -0.16535962
-0.05986992 0.07339321 -0.2529103 0.099501856 0.015840758 0.4078473 -0.046359163 0.0074449787
0.04981651 -0.106372215 -0.024179777 -0.00031372494 0.024544165 0.1311844 -0.03906639 0.18280429
-0.0029352307 0.06293159 0.002102002 0.019500464 0.18432482 0.17098343 -0.11908907 0.018736044
-0.19443803 0.055024456 -0.034615513 -0.010800416 -0.032968182 -0.13970412 0.02043295 0.07701935
0.3167907 0.11885805 0.025558835 -0.028371124 -0.004342051 -0.052455172 0.07884871 0.01356291
0.11602594 -0.06997338 -0.12812644 -0.0749214 0.029073505 -0.00520407 -0.07424689 0.01864249
0.063837625 0.0013858344 0.4501075 -0.40938425 -0.2787904 -0.08453408 -0.054278888 0.11114673
-0.036754083 0.051516548 -0.07239662 -0.050071694 0.008785058 -0.06768977 0.08323114 0.18397756
-0.007998925 0.014597289 -0.0041988534 -0.06401912 0.05446413 -0.066696286 0.004316459 -0.060356475
-0.03316951 0.09833087 -0.004215556 0.0066221072 -0.25609997 -0.041725345 0.07359309 0.045092292

model.4.bias f4 [3]
00000000: d362 153e e61e e43d 128b e23d
0.1458848 0.11138706 0.11061682
