left_agent.pth (torch, 73894 bytes, 6 tensors)

model.0.weight f4 [128, 6]
0.09323094 -0.13765556 -0.0067286817 0.059758235 0.017765367 -0.024116235 -1.2725788 0.21059664
0.6881325 -0.6034225 -1.1116487 -0.30512407 -0.022818595 0.09435713 -0.1326991 -0.406673
0.22226328 -0.20976733 -1.387928 -0.18429485 0.80976534 0.12554204 0.964033 -1.5510316
-0.42490363 -0.0030155845 -0.58349186 0.23196054 -1.6123246 -0.41759244 -1.5409389 -4.68595
-8.836639 0.3116439 0.7401175 0.09159054 0.314952 -0.15037963 -0.010118864 -0.16901015
0.11715192 -0.039450865 0.033262797 -0.07725444 0.13093118 -1.5273026 0.6284344 -1.7217208
-0.52306426 -1.1327562 1.358514 -1.1211708 0.6478853 -2.9444098 -2.3737683 0.2234484
-0.21323495 2.0484548 -0.16439375 1.6916549 -0.25818276 -1.509319 0.73306125 0.02379046
-1.4229366 -2.318757 0.4735939 -0.8659825 0.38693136 -0.25662237 1.4290732 -0.6227475
-1.0224946 -0.9927656 0.5752834 -2.1212282 0.41473243 -1.0618973 -0.40282872 -0.08098017
0.016202888 0.24723934 -0.03093048 -0.06832559 0.05708182 -0.35055155 -1.7942257 0.03188447
-0.38142768 -2.1032398 -0.8932493 0.41610426 -0.07767526 0.7429203 -0.63986397 0.64960736
0.02273711 -0.5306354 1.1653434 0.78848857 0.35573295 1.3970714 -0.4616217 -0.5200984
1.392247 0.2764322 -0.51358205 -0.13415016 0.6304854 -0.18958941 -0.37508255 -0.28489536
-0.42829615 -0.6272241 -1.5221131 -2.5768328 -1.7200775 0.14589573 1.6053591 -0.82780015
-0.33317137 -0.9292755 0.11774106 0.34436312 -1.739138 -0.9143939 -2.121908 0.80261713
0.85536134 -0.039216522 -0.1194988 0.18432516 -0.1977273 -0.539229 -0.08391755 0.8849967
-0.74358106 -1.0256152 -0.5967888 1.4094992 -0.39370668 0.28749985 0.038139045 2.8416045
-0.49562588 -0.10919195 0.1746095 -0.3006641 -0.15378122 -1.9768144 -1.0609092 0.42817798
-15.311128 0.27729765 0.060108766 -0.33143282 0.41160184 -0.46475112 1.3903102 0.58018625
1.7198714 0.0033465002 -0.31601667 0.1015382 -0.015706133 0.024403239 0.13479957 0.0869765
-0.9645887 -0.6529714 -0.10973275 0.91663605 0.5897384 1.6067388 0.32069537 -1.2151958
0.4421378 -0.14462033 -0.8088756 0.58369964 -0.24499547 -0.4002018 0.20824486 0.0029941797
0.07792607 -0.21719673 0.3683066 -0.35296062 0.94942653 -1.7603403 0.8531381 -1.6954513
-0.17365415 0.100645594 1.75572 -2.0732715 0.52043986 -0.66420555 -0.05624359 -5.3867426
0.0116348155 -1.1861479 -0.43283454 -0.8589322 -0.15975924 -1.5531981 -20.456942 0.8999265
0.5070859 -1.5694698 0.113785654 -0.29443774 0.11474214 0.1424329 -0.26498494 -0.015281051
-0.20722032 0.39065316 -4.4762163 -0.12377045 1.7709038 -1.1741086 0.8306581 -0.31803384
0.6377497 -0.04357025 -2.0015607 -1.2078991 0.08123775 1.3019751 0.38151243 -2.3575146
0.9063221 -0.9938849 0.70164114 0.7678417 0.29632923 -3.8221984 -1.2170041 -0.8303142
-0.5586551 0.557037 1.0067115 -1.0531712 0.85026085 -1.6159984 0.411558 -0.22475368
-1.2715831 -0.04314463 -0.9454023 -1.1760273 -0.026804328 -0.08816299 -0.18160146 -0.16096349
00000000: ddef be3d 94f5 0cbe 467c dcbb 0dc5 743d
00000010: ad88 913c 698f c5bc dde3 a2bf a5a6 573e
00000020: 7429 303f e679 1abf 814a 8ebf 3939 9cbe
00000030: 10ee babc 503e c13d 46e2 07be 7237 d0be
00000040: fc98 633e 3fcd 56be a0a7 b1bf cab7 3cbe
00000050: c84c 4f3f 188e 003e deca 763f 3488 c6bf
00000060: f88c d9be 1da1 45bb b95f 15bf 1087 6d3e
00000070: a760 cebf adce d5be 7c3d c5bf 4df3 95c0
00000080: e062 0dc1 ca8f 9f3e 5778 3d3f d293 bb3d
00000090: 6341 a13e 1efd 19be 97c9 25bc ff10 2dbe
000000a0: 59ed ef3d 3b97 21bd 923e 083d 9337 9ebd
000000b0: d312 063e a77e c3bf 14e1 203f 5961 dcbf
000000c0: 8ae7 05bf 28fe 90bf c9e3 ad3f 8682 8fbf
000000d0: d0db 253f 3671 3cc0 d2eb 17c0 a8cf 643e
000000e0: 435a 5abe e219 0340 d656 28be 2688 d83f
000000f0: 8830 84be 5d31 c1bf e7a9 3b3f 36e4 c23c
00000100: c922 b6bf 8466 14c0 e67a f23e 07b1 5dbf
00000110: de1b c63e 0264 83be dfeb b63f 616c 1fbf
00000120: 1ae1 82bf e325 7ebf c645 133f 34c2 07c0
00000130: cf57 d43e 40ec 87bf 913f cebe eed8 a5bd
00000140: ebbb 843c 4f2c 7d3e eb61 fdbc 49ee 8bbd
00000150: a0ce 693d 7e7b b3be 30a9 e5bf 4a99 023d
00000160: 7d4a c3be 7b9b 06c0 fcab 64bf 9e0b d53e
00000170: 3514 9fbd 0630 3e3f 20ce 23bf ab4c 263f
00000180: 2d43 ba3c b9d7 07bf f929 953f 63da 493f
00000190: a122 b63e 3cd3 b23f ae59 ecbe 2b25 05bf
000001a0: 2635 b23f 8588 8d3e 1d7a 03bf a95e 09be
000001b0: 7e67 213f ba23 42be d20a c0be cedd 91be
000001c0: a249 dbbe c291 20bf 9ad4 c2bf d4ea 24c0
000001d0: 802b dcbf b165 153e 687c cd3f b6ea 53bf
000001e0: 7095 aabe 00e5 6dbf 3a22 f13d 5d50 b03e
000001f0: 139c debf b815 6abf 57cd 07c0 5178 4d3f
00000200: f6f8 5a3f 81a1 20bd c9bb f4bd bcbf 3c3e
00000210: 0679 4abe e90a 0abf f7dc abbd 258f 623f
00000220: 545b 3ebf 5c47 83bf 27c7 18bf 786a b43f
00000230: ec93 c9be 2e33 933e b037 1c3d d9dc 3540
00000240: adc2 fdbe 07a0 dfbd d5cc 323e a5f0 99be
00000250: d378 1dbe 4108 fdbf dfcb 87bf 253a db3e
00000260: 61fa 74c1 f5f9 8d3e 9c34 763d 90b1 a9be
00000270: 7abd d23e dcf3 edbe aff5 b13f 1687 143f
00000280: bf24 dc3f f550 5b3b f0cc a1be 43f3 cf3d
00000290: 26aa 80bc 4de9 c73c e608 0a3e bc20 b23d
000002a0: 49ef 76bf 2229 27bf 90bb e0bd a9a8 6a3f
000002b0: 19f9 163f 9ea9 cd3f 2f32 a43e 898b 9bbf
000002c0: e35f e23e 5a17 14be 7912 4fbf 576d 153f
000002d0: 18e0 7abe 40e7 ccbe 243e 553e 003a 443b
000002e0: b497 9f3d d268 5ebe af92 bc3e 41b7 b4be
000002f0: 9e0d 733f d552 e1bf 4267 5a3f 8c04 d9bf
00000300: 65d2 31be 471f ce3d 6fbb e03f 7bb0 04c0
00000310: 8c3b 053f 6009 2abf ae5f 66bd 3260 acc0
00000320: f49f 3e3c b2d3 97bf 7d9c ddbe fbe2 5bbf
00000330: ed97 23be 32cf c6bf d1a7 a3c1 9561 663f
00000340: 62d0 013f 63e4 c8bf 7408 e93d 8bc0 96be
00000350: edfd ea3d eed9 113e 1bac 87be 605d 7abc
00000360: 9031 54be b103 c83e 2a3d 8fc0 5d7b fdbd
00000370: faac e23f 3149 96bf 02a6 543f 55d5 a2be
00000380: 9043 233f b876 32bd 9219 00c0 709c 9abf
00000390: fa5f a63d 1fa7 a63f 9955 c33e 85e1 16c0
000003a0: ba04 683f 3e6f 7ebf c19e 333f 4691 443f
000003b0: 77b8 973e e69e 74c0 cac6 9bbf 798f 54bf
000003c0: 0504 0fbf fa99 0e3f ecdb 803f 50ce 86bf
000003d0: b2aa 593f 09d9 cebf bbb7 d23e d425 66be
000003e0: 3cc3 a2bf 6cb8 30bd e305 72bf 1088 96bf
000003f0: c094 dbbc cc8e b4bd bcf5 39be 9dd3 24be

model.0.bias f4 [128]
-0.29879022 -1.2690921 -0.3241335 0.21898758 -0.035732955 -0.07175894 -0.39736855 0.7478537
0.4228151 0.16909136 -0.36676556 -1.0043135 0.15163659 -0.40698105 0.7018398 0.26127025
-1.0966 -0.15509376 0.76711994 -0.6040799 -0.78425646 -0.5784996 -0.1212986 -0.5518931
0.5072504 0.43956804 -0.957259 -0.33251128 -0.43555036 -1.2785367 -0.3538208 0.3930805
-0.049756907 0.6998063 0.23409314 -0.49771404 -0.74050283 -0.21513587 0.5155427 0.2588528
0.42070442 0.84539336 -0.06989476 -0.8689958 0.334761 -0.6927063 0.16402026 -0.68095875
-0.084018245 0.89697576 0.679508 -0.022392156 -0.30796242 -0.4893929 -0.015787587 0.5643496
0.36758912 -0.59863687 0.24042106 -0.31846255 -0.36730185 1.3216453 0.44698602 -0.5375549
-0.5411096 -0.45626062 -0.22356366 -0.76885504 -0.37249526 -0.30583054 0.034836937 0.20018697
-0.20594344 0.1384912 -0.06248929 0.5463468 -0.14483799 0.56127524 -0.20220281 -0.23443806
-1.0722008 -0.27958727 1.0987952 -0.13058397 0.12814674 -0.16742633 -0.102668606 0.46860638
-0.7273544 0.30041644 0.052477714 -0.74292433 -0.39040256 0.93865055 -0.5604025 0.0967479
-0.3457036 -0.29127023 0.7307839 -0.09867879 0.48585802 -0.53356683 -0.64315164 -0.5684858
0.08384968 -0.9885489 0.2137444 -1.1432769 -0.27612942 0.43459684 -0.3708342 -0.22937958
-0.15538396 -0.24838856 -0.8290524 1.1893086 -0.41520476 -0.13879152 -0.23613785 0.5657003
0.26915455 -0.6956558 -0.5093901 -0.26869392 1.0847845 -0.6492216 0.51002955 0.12505746
00000000: 08fb 98be 9c71 a2bf d3f4 a5be 483e 603e
00000010: b85c 12bd 5af6 92bd e473 cbbe 5773 3f3f
00000020: 397b d83e 4926 2d3e b2c8 bbbe 588d 80bf
00000030: 9f46 1b3e d25f d0be c6ab 333f 37c5 853e
00000040: 645d 8cbf e6d0 1ebe f961 443f fba4 1abf
00000050: 08c5 48bf 8d18 14bf 676b f8bd de48 0dbf
00000060: 2adb 013f 100f e13e ed0e 75bf eb3e aabe
00000070: 7500 dfbe 17a7 a3bf 0028 b5be d941 c93e
00000080: e6cd 4bbd 8126 333f 1db6 6f3e 60d4 febe
00000090: 9891 3dbf 944c 5cbe 9bfa 033f 5b88 843e
000000a0: 9266 d73e b36b 583f fc24 8fbd 8276 5ebf
000000b0: cb65 ab3e 3355 31bf edf4 273e 5053 2ebf
000000c0: c211 acbd 34a0 653f 3cf4 2d3f c16f b7bc
000000d0: 40ad 9dbe b591 fabe f854 81bc 3779 103f
000000e0: a434 bc3e 4440 19bf f030 763e 860d a3be
000000f0: fd0e bcbe ac2b a93f 5adb e43e 339d 09bf
00000100: 2986 0abf fe9a e9be dfed 64be afd3 44bf
00000110: b3b7 bebe d295 9cbe 2db1 0e3d d0fd 4c3e
00000120: d6e2 52be a3d0 0d3e c5f4 7fbd 62dd 0b3f
00000130: 6950 14be bcaf 0f3f 410e 4fbe 8810 70be
00000140: e03d 89bf 1026 8fbe 52a5 8c3f ceb7 05be
00000150: e638 033e cf71 2bbe eb43 d2bd 2ded ef3e
00000160: e633 3abf 2fd0 993e dff2 563d 4a30 3ebf
00000170: d8e2 c7be 674b 703f 8a76 0fbf c323 c63d
00000180: 1000 b1be 5f21 95be a714 3b3f 1b18 cabd
00000190: 62c2 f83e d697 08bf 96a5 24bf 4988 11bf
000001a0: 62b9 ab3d 8a11 7dbf d0df 5a3e e656 92bf
000001b0: d660 8dbe 7a83 de3e fbdd bdbe 7be2 6abe
000001c0: f91c 1fbe 9259 7ebe c73c 54bf 443b 983f
000001d0: b895 d4be 5d1f 0ebe 1fce 71be bcd1 103f
000001e0: a0ce 893e 8016 32bf 6467 02bf 4092 89be
000001f0: 38da 8a3f 6333 26bf 4c91 023f 100f 003e

model.2.weight f4 [128, 128]
0.08292214 -2.1211524 0.048751853 -0.33809942 0.068596706 0.8757184 0.071513124 0.09154271
0.5592709 2.9710512 -0.5338888 -5.496855 -0.74045765 -0.103136346 0.20126532 -0.86746025
4.243471 -0.14811832 0.39772847 -2.8953154 -2.6751544 -0.34175482 -0.15151218 0.07171536
-0.01255279 2.3320081 -3.1662307 0.0767696 -0.13181221 0.09033703 -0.07780415 0.0065390025
-0.35274366 0.281074 2.451225 0.027001588 -2.771196 -0.05376105 -0.40223324 0.05828478
-0.40842047 2.169915 0.060215227 -4.5356083 0.4889779 -0.1063384 -0.34775895 -2.7040894
-5.1635575 1.2919841 -0.42957315 -2.0514848 -0.0655197 0.058763877 -0.55980426 -0.18967871
-0.18524714 1.402896 2.8276765 0.001075767 0.042200003 -1.2561829 1.1427544 -3.0939755
0.22708584 0.30176753 -0.040137347 3.6212292 1.081429 0.07703235 -0.39587283 -0.47194284
-0.009866445 -2.658567 0.49040446 0.49220893 -2.910817 -0.21147095 -1.3154775 -0.006892104
1.1633338 0.07729822 1.4420364 1.869728 0.62282884 -1.5642922 0.71468896 -0.44579926
-0.44562304 0.99063057 0.3643765 -1.2542458 0.072842024 0.29802153 -1.7140324 -0.1538658
0.08518531 -0.036952145 -1.4742719 -0.47322255 -0.15372655 -0.5312501 0.656831 -2.8015165
-0.663239 -5.427398 0.46800596 0.6344658 -0.7930119 -0.19930065 -0.075233534 0.027695797
1.4289496 0.006866172 0.93008673 0.051661827 -0.20335545 -1.0749822 -2.2422142 0.12751932
0.112779245 -3.7008138 -1.3740318 -0.08016585 1.0152762 -1.1042305 -0.021886192 -0.7630563
-0.087560326 1.349733 -0.048372686 -3.2519782 -0.38106018 0.11604631 0.060049422 -2.2478316
-0.9340722 0.37720484 -0.4245823 0.10482439 -2.5517642 0.09509575 -1.9909537 -0.26493365
0.8458545 0.3942562 -3.069975 0.41038984 0.81811935 -2.3610594 -0.3201205 -2.6011553
-2.5190983 0.605533 0.54055744 -0.07994275 -2.488422 0.98649967 -0.04783185 -2.192223
0.6448347 -2.4114823 -2.4253364 0.05330558 0.07077399 -2.7982697 -2.7508337 0.60090846
0.00015692427 -2.2881792 0.00053060055 1.9142997 -2.0627577 -0.32722536 -3.5465431 1.6642393
-0.50909746 -1.8125532 -1.5159255 -0.031453002 -0.32179135 -1.6981791 -2.5777755 -1.817441
-0.1032941 1.0230304 -0.29907355 -0.026790276 -0.010167919 -2.8717678 -1.502486 1.1297467
-1.5939014 0.072412916 0.33938488 -2.2937143 0.28435263 -0.025672965 0.23540124 -0.5429381
0.04154299 -2.0529087 -3.037992 -2.4042294 -0.14370796 -2.034754 -0.83421105 -0.6208616
0.60376 -0.001901269 -0.3780047 0.76847684 -0.07331895 0.24554268 -0.086113006 -1.9604928
-2.2259471 -2.3523269 0.9615713 0.5369035 0.014268338 -1.6312134 -1.0678108 -4.7708035
-0.16083047 -1.4270785 -0.92201245 -1.4320097 -3.9348662 -0.7935947 -2.5081606 -2.321558
-1.2358123 -0.8730763 0.6766904 -2.6955678 -0.5277227 -0.9279669 -0.07660062 0.091340914
0.34037802 -0.0017940328 -0.35292754 -1.1051418 -0.52345264 -1.0156626 -0.21079127 -2.4159083
-0.41444215 0.6904347 -1.0924685 0.014921428 -3.5722182 -0.035338335 -2.3783176 -2.0012326
00000000: 15d3 a93d f6c0 07c0 06b0 473d 5e1b adbe
00000010: 6e7c 8c3d 152f 603f 7975 923d bf7a bb3d
00000020: 612c 0f3f b425 3e40 f0ac 08bf 3ce6 afc0
00000030: a28e 3dbf 2639 d3bd 7f18 4e3e e011 5ebf
00000040: 84ca 8740 54ac 17be 11a3 cb3e d94c 39c0
00000050: bb35 2bc0 7dfa aebe 0226 1bbe 81df 923d
00000060: 38aa 4dbc 9f3f 1540 86a3 4ac0 6139 9d3d
00000070: c8f9 06be 9f02 b93d c857 9fbd 2145 d63b
00000080: d19a b4be eee8 8f3e dfe0 1c40 6f32 dd3c
00000090: 465b 31c0 8c34 5cbd 84f1 cdbe 05bc 6e3d
000000a0: 7d1c d1be e3df 0a40 3ea4 763d b423 91c0
000000b0: 505b fa3e f2c7 d9bd 760d b2be cd0f 2dc0
000000c0: dd3b a5c0 bc5f a53f 03f1 dbbe 874b 03c0
000000d0: 312f 86bd 64b2 703d 554f 0fbf 233b 42be
000000e0: 6db1 3dbe 1992 b33f a7f8 3440 c000 8d3a
000000f0: e9d9 2c3d 9aca a0bf c745 923f b203 46c0
00000100: 3189 683e 4681 9a3e 0f67 24bd 38c2 6740
00000110: 446c 8a3f 23c3 9d3d d8af cabe 7ea2 f1be
00000120: dfa6 21bc f625 2ac0 4b16 fb3e cf02 fc3e
00000130: d34a 3ac0 d78b 58be 9161 a8bf 29d7 e1bb
00000140: 1fe8 943f 874e 9e3d a694 b83f 3f53 ef3f
00000150: b671 1f3f ba3a c8bf dbf5 363f cd3f e4be
00000160: b428 e4be f799 7d3f 8e8f ba3e 208b a0bf
00000170: 332e 953d 4796 983e 6a65 dbbf ff8e 1dbe
00000180: a375 ae3d 225b 17bd f1b4 bcbf 3a4a f2be
00000190: 7e6a 1dbe 0200 08bf 1426 283f 0c4c 33c0
000001a0: 08ca 29bf 3fad adc0 7a9e ef3e 5a6c 223f
000001b0: d402 4bbf 7815 4cbe 0a14 9abd 4ce2 e23c
000001c0: d2e7 b63f a0fd e03b 2a1a 6e3f 5a9b 533d
000001d0: 693c 50be 0499 89bf 7080 0fc0 6d94 023e
000001e0: cef8 e63d 22da 6cc0 46e0 afbf fe2d a4bd
000001f0: 92f4 813f 6d57 8dbf ac4a b3bc a857 43bf
00000200: d452 b3bd 0dc4 ac3f 7022 46bd 6920 50c0
00000210: 521a c3be b0a9 ed3d 62f6 753d 79dc 0fc0
00000220: 5b1f 6fbf fe20 c13e da62 d9be 2bae d63d
00000230: 1b50 23c0 90c1 c23d 92d7 febf 62a5 87be
00000240: ec89 583f f3db c93e 787a 44c0 9e1e d23e
00000250: 4570 513f 991b 17c0 d6e6 a3be 5479 26c0
00000260: e838 21c0 3604 1b3f f961 0a3f 06b9 a3bd
00000270: 4e42 1fc0 3e8b 7c3f 54eb 43bd 624d 0cc0
00000280: e313 253f ba55 1ac0 b638 1bc0 f456 5a3d
00000290: f4f1 903d da16 33c0 a90d 30c0 23d5 193f
000002a0: 0a8c 2439 8771 12c0 0018 0b3a c607 f53f
000002b0: 3904 04c0 158a a7be 90fa 62c0 cb05 d53f
000002c0: 3654 02bf be01 e8bf d909 c2bf ddd4 00bd
000002d0: d6c1 a4be ef5d d9bf 46fa 24c0 e8a1 e8bf
000002e0: db8b d3bd a9f2 823f 2b20 99be 4877 dbbc
000002f0: 5897 26bc 0bcb 37c0 7651 c0bf 8a9b 903f
00000300: f604 ccbf 394d 943d dbc3 ad3e 37cc 12c0
00000310: ab96 913e 1c50 d2bc 060d 713e fefd 0abf
00000320: fb28 2a3d db62 03c0 766e 42c0 e5de 19c0
00000330: 2e28 13be 6939 02c0 db8e 55bf c9f0 1ebf
00000340: 0490 1a3f 0034 f9ba d589 c1be e6ba 443f
00000350: 3f28 96bd 8a6f 7b3e 045c b0bd 6ef1 fabf
00000360: eb75 0ec0 868c 16c0 8929 763f 8272 093f
00000370: bfc5 693c 9acb d0bf 06ae 88bf 6caa 98c0
00000380: beb0 24be 82aa b6bf 0209 6cbf 184c b7bf
00000390: d9d4 7bc0 0629 4bbf b485 20c0 6894 14c0
000003a0: 192f 9ebf ee81 5fbf 953b 2d3f 2f84 2cc0
000003b0: d618 07bf 3d8f 6dbf c9e0 9cbd f210 bb3d
000003c0: 0746 ae3e c025 ebba ebb2 b4be 4975 8dbf
000003d0: fe00 06bf 3b01 82bf abd9 57be 3e9e 1ac0
000003e0: c331 d4be 54c0 303f 02d6 8bbf 0179 743c
000003f0: 399f 64c0 eebe 10bd 5b36 18c0 3214 00c0

model.2.bias f4 [128]
-0.21540973 -0.7052343 -0.03327599 -0.6521878 -0.1296408 -0.10385544 -0.013044242 -0.110458836
-0.20525287 -0.053641956 -0.08596239 -0.029689621 -0.39282465 -1.0557303 -0.096696235 -0.04123302
-0.08855872 -0.15240346 -0.5559751 -0.13569342 0.32753524 -0.004311332 -0.07773493 -0.008562826
-0.1200318 -0.043298434 -0.068723105 -0.09667457 -0.04663735 0.04519031 0.017477594 -0.056120064
-0.15425576 0.43896538 -0.07114575 -0.2899936 -0.27145118 -0.12262865 -0.10223769 -0.34774128
-0.13177665 -0.11433354 -0.007994705 -0.18075459 -0.0071989424 0.13643341 -0.058581978 -0.059868205
-0.06678979 -0.11646498 -0.011058283 -0.23324536 0.05982469 -0.6810073 -0.47268847 -0.14596067
-0.7006002 -0.28303987 -0.3495418 -0.2035354 -0.0967607 -0.38355672 -0.048444558 -0.28341055
-0.019576035 -0.07666603 -0.09021317 -0.07870798 0.003110091 0.94457054 -0.1015908 -0.06524674
0.16513132 -0.076681465 -0.036326364 0.06375904 -0.6218558 -0.052999698 -0.39324418 -0.028830046
0.029565506 -0.17553258 -0.03814985 -0.15550059 0.064369604 -0.40618682 -0.4135993 -0.1381412
-0.2799665 0.19578661 0.0007477185 -0.07782867 -0.04377933 0.059821606 -0.11726911 -0.1472359
-0.08492862 -0.25819665 0.86287284 -0.2653829 -0.24526873 -0.1268129 -0.09055114 -0.017944654
-0.06877986 -0.11280967 -0.066226 -0.24388184 -0.011005575 -0.11746344 -0.13194075 -0.1355855
-0.50074995 -0.0938454 -0.046445433 -0.21997574 -0.12703179 0.098467425 -0.430244 -0.27753782
-0.022874163 -0.36624834 -0.075873025 -0.10887495 0.019266618 -0.025738016 -0.121149465 -0.124024585
00000000: 5e94 5cbe 3c8a 34bf 684c 08bd c8f5 26bf
00000010: 8fc0 04be 29b2 d4bd 84b7 55bc 3e38 e2bd
00000020: cf2d 52be abb7 5bbd 0d0d b0bd a637 f3bc
00000030: 5020 c9be 2c22 87bf ad08 c6bd f5e3 28bd
00000040: 465e b5bd a70f 1cbe 6254 0ebf 37f3 0abe
00000050: b3b2 a73e 1346 8dbb 7e33 9fbd 184b 0cbc
00000060: 3bd3 f5bd b359 31bd b3be 8cbd 51fd c5bd
00000070: ce06 3fbd 7919 393d 2c2d 8f3c 27de 65bd
00000080: 39f5 1dbe 12c0 e03e ddb4 91bd 0b7a 94be
00000090: a6fb 8abe bb24 fbbd fe61 d1bd 250b b2be
000000a0: 75f0 06be b427 eabd 39fc 02bc bb17 39be
000000b0: 1be5 ebbb 33b5 0b3e a8f3 6fbd 5d38 75bd
000000c0: 16c9 88bd 3185 eebd cd2d 35bc dfd7 6ebe
000000d0: bc0a 753d 7f56 2ebf 3904 f2be b776 15be
000000e0: 895a 33bf 9aea 90be 25f7 b2be 956b 50be
000000f0: 792a c6bd 8c61 c4be cd6d 46bd 301b 91be
00000100: ec5d a0bc 1403 9dbd afc1 b8bd a631 a1bd
00000110: abd2 4b3b 60cf 713f d60e d0bd 15a0 85bd
00000120: 2f18 293e 2c0b 9dbd f4ca 14bd 1994 823d
00000130: f131 1fbf 3616 59bd 4d57 c9be fd2c ecbc
00000140: 5c33 f23c d0be 33be 0443 1cbd 8c3b 1fbe
00000150: 36d4 833d b8f7 cfbe 4ac3 d3be e374 0dbe
00000160: c557 8fbe 497c 483e 8a02 443a a364 9fbd
00000170: f451 33bd 8007 753d ca2a f0bd 02c5 16be
00000180: 0eef adbd 5a32 84be 3ce5 5c3f 44e0 87be
00000190: ba27 7bbe 3edb 01be e072 b9bd ab00 93bc
000001a0: 75dc 8cbd c208 e7bd 7fa1 87bd 29bc 79be
000001b0: ba50 34bc ac90 f0bd 7a1b 07be edd6 0abe
000001c0: 2631 00bf 0432 c0bd 913d 3ebd 5241 61be
000001d0: 9f14 02be 4aa9 c93d f148 dcbe 7019 8ebe
000001e0: 9962 bbbc e784 bbbe 5163 9bbd d4f9 debd
000001f0: 07d5 9d3c 88d8 d2bc 361d f8bd 9a00 febd

model.4.weight f4 [3, 128]
-0.9052232 2.488746 -0.037436146 -0.45616153 0.04803001 -0.0527999 0.6309509 -0.018631343
-0.47764674 0.07191804 0.023978556 -0.0009685671 -1.2538987 -0.31068474 -0.054749493 -0.0662394
0.05023654 1.3467524 -0.31152764 -0.01567507 1.580201 -0.048295226 -0.045937467 -1.1382754
0.048976786 -0.07152054 0.007416457 -0.87850195 -0.26587838 0.9121848 0.7706466 0.01226842
0.022293719 0.6216556 -0.012054671 -0.08327447 -0.900943 0.019420035 -0.0019075796 -0.74931544
0.00024243476 -0.81636965 0.01623836 0.28138378 -0.068634264 0.9819661 -0.021606667 -0.007728662
-1.3021135 0.046316266 1.8488469 -1.5222375 -0.3091413 1.8311496 1.4944715 -0.05807369
2.0004206 1.5954958 0.8158987 1.9874434 -0.054274503 -0.6990844 -0.010934764 0.020848267
-0.026962837 -0.0019221863 0.03731478 -0.022504376 0.020571291 0.57579595 -0.09590553 0.055936582
-0.98303634 0.038684394 0.079745695 -0.4851888 1.5518848 0.45154682 1.5967542 -0.02006464
-0.006776831 -1.0670805 0.061858725 0.10022322 0.4003686 1.7546045 1.7845156 0.039447777
1.8161699 1.2127278 -1.2911046 -0.038744528 0.029402355 1.7801228 0.84876096 -0.03986703
-0.064445965 0.9100433 0.8240769 -0.5239145 0.5559339 -0.009319929 -0.011697783 -0.017811613
-0.0324126 0.08209684 0.08001327 2.5099242 0.011228956 -0.04933248 -0.054126352 -0.09247954
0.54885435 0.24043454 -0.1291788 -0.2529906 -0.01905024 0.74872464 2.2730315 -1.3075626
0.06749867 0.69529086 0.031103538 0.054423787 -1.3477867 -0.011001263 0.0050072777 0.024797698
-0.9487372 2.2396133 -0.006426932 -0.40813214 -0.05325836 0.010373032 0.80860305 -0.010846743
-0.4508902 0.05298442 -0.062333047 0.045264564 -1.1649522 -0.30448723 -0.045732744 0.02293006
-0.042322535 1.5679427 -0.32067677 -0.033253208 1.5566764 -0.09418765 0.044930357 -1.1468174
0.024347868 -0.0506004 -0.067710236 -0.84674644 -0.3649076 0.7798494 0.7772602 0.06812524
0.03256502 0.61916393 -0.005585574 0.016425986 -1.075393 -0.048409168 0.026563121 -0.9419614
0.017864913 -0.8225432 -0.059130084 0.28656703 -0.0058465614 0.8941603 0.051355887 0.0557848
-1.1983763 0.039410353 1.8473037 -1.1892104 -0.29241976 1.6112238 1.2954861 -0.0017442962
2.387343 1.5420583 0.6849477 2.2002366 0.029991154 -0.61949587 0.0012402594 0.021006856
-0.07840071 -0.05163629 0.01169164 -0.011532628 -0.045430943 0.57657117 -0.08318294 -0.03979608
-0.9189929 0.1119027 0.072274216 -0.4573695 1.574556 0.3864149 1.5932634 0.05649904
-0.068549015 -1.0645496 -0.0059475354 0.0067986296 0.39054343 1.7250156 1.7455208 -0.022433816
1.7270616 0.7222093 -1.2163868 -0.030709049 0.016156083 1.8627468 1.6935271 -0.030092627
0.053530645 0.91681504 0.822172 -0.51929605 0.53418905 0.11615561 -0.059537146 -0.030129083
0.055295773 0.023314567 -0.022740772 2.3196075 -0.052652184 0.078637056 -0.0055741416 -0.019245062
0.6112602 0.29854336 -0.016615678 0.5501903 -0.01927528 1.846206 1.828827 -1.3000994
-0.04496716 0.4018361 0.02915487 -0.009188119 -1.345022 -0.0782467 0.0034727545 0.003914736
00000000: b5bc 67bf 9d47 1f40 a556 19bd 018e e9be
00000010: 1ebb 443d b544 58bd 0086 213f c2a0 98bc
00000020: 1d8e f4be c449 933d ad6e c43c 70e7 7dba
00000030: c17f a0bf 1212 9fbe 0141 60bd 86a8 87bd
00000040: d5c4 4d3d 6262 ac3f 8d80 9fbe 0169 80bc
00000050: 0744 ca3f 37d1 45bd ed28 3cbd 02b3 91bf
00000060: e29b 483d 5c79 92bd c005 f33b 81e5 60bf
00000070: 3621 88be f184 693f 1849 453f 7c01 493c
00000080: 51a1 b63c d224 1f3f f480 45bc ce8b aabd
00000090: 33a4 66bf c416 9f3c c007 faba 23d3 3fbf
000000a0: 1636 7e39 9afd 50bf 4f06 853c 8911 903e
000000b0: 1f90 8cbd 2162 7b3f 7700 b1bc b740 fdbb
000000c0: a8ab a6bf 20b6 3d3d 04a7 ec3f aed8 c2bf
000000d0: c547 9ebe 1c63 ea3f d84a bf3f adde 6dbd
000000e0: e406 0040 3539 cc3f bdde 503f 8c64 fe3f
000000f0: f14e 5ebd 32f7 32bf b927 33bc fcc9 aa3c
00000100: 2be1 dcbc dff1 fbba 62d7 183d 195b b8bc
00000110: 2085 a83c 5d67 133f 1e6a c4bd c21d 653d
00000120: 45a8 7bbf 8773 1e3d b651 a33d ab6a f8be
00000130: 29a4 c63f 2531 e73e 7162 cc3f 9a5e a4bc
00000140: 2e10 debb 1896 88bf 935f 7d3d d541 cd3d
00000150: 1dfd cc3e e196 e03f 026b e43f fe93 213d
00000160: 4178 e83f aa3a 9b3f ea42 a5bf 95b2 1ebd
00000170: 35dd f03c 10db e33f 6648 593f 9c4b 23bd
00000180: 3ffc 83bd 99f8 683f b4f6 523f 431f 06bf
00000190: af51 0e3f 9eb2 18bc 0fa8 3fbc a9e9 91bc
000001a0: 13c3 04bd 6322 a83d ffdd a33d 99a2 2040
000001b0: a8f9 373c db10 4abd 98b3 5dbd ea65 bdbd
000001c0: b881 0c3f 7934 763e 7347 04be fc87 81be
000001d0: 400f 9cbc 6bac 3f3f 5979 1140 365e a7bf
000001e0: be3c 8a3d 95fe 313f d9cc fe3c 7aeb 5e3d
000001f0: 4684 acbf a43e 34bc 1714 a43b 8b24 cb3c
00000200: 71e0 72bf d355 0f40 0399 d2bb b2f6 d0be
00000210: 7025 5abd a6f3 293c 9c00 4f3f 8ab6 31bc
00000220: 15db e6be 3106 593d f050 7fbd 5667 393d
00000230: 271d 95bf c0e5 9bbe 4252 3bbd d2d7 bb3c
00000240: 655a 2dbd 59b2 c83f bf2f a4be 8434 08bd
00000250: 2c41 c73f 74e5 c0bd e508 383d eaca 92bf
00000260: 2e75 c73c 5d42 4fbd aaab 8abd 60c4 58bf
00000270: 2bd5 babe 36a4 473f 86fa 463f 3f85 8b3d
00000280: e662 053d 8781 1e3f 3107 b7bb ca8f 863c
00000290: 7aa6 89bf b148 46bd e79a d93c 6224 71bf
000002a0: 7059 923c 3192 52bf 6332 72bd eab8 923e
000002b0: 8394 bfbb b0e7 643f 8d5a 523d 9a7e 643d
000002c0: 6564 99bf c06c 213d 7374 ec3f 0c38 98bf
000002d0: 0bb8 95be 953c ce3f 7dd2 a53f dea0 e4ba
000002e0: 3aca 1840 2b62 c53f bc58 2f3f add0 0c40
000002f0: 02b0 f53c 4897 1ebf 3390 a23a 9216 ac3c
00000300: 8d90 a0bd 9380 53bd 4b8e 3f3c 59f3 3cbc
00000310: cc15 3abd 2b9a 133f d15b aabd 3701 23bd
00000320: 1e43 6bbf 3e2d e53d 8104 943d 562c eabe
00000330: 0d8b c93f 2cd8 c53e 0ef0 cb3f 8a6b 673d
00000340: 6d63 8cbd 2943 88bf 8be3 c2bb 0ac7 de3b
00000350: 4ff5 c73e 50cd dc3f 3a6d df3f 1fc7 b7bc
00000360: 5b10 dd3f b5e2 383f 90b2 9bbf 8b91 fbbc
00000370: c359 843c 7d6e ee3f 7fc5 d83f d084 f6bc
00000380: f342 5b3d 64b4 6a3f dd79 523f 96f0 04bf
00000390: 9dc0 083f fee2 ed3d 39dd 73bd 44d1 f6bc
000003a0: d27d 623d 31fe be3c db4a babc 7374 1440
000003b0: d1a9 57bd 770c a13d 4aa7 b6bb d2a7 9dbc
000003c0: 8c7b 1c3f adda 983e 9a1d 88bc 46d9 0c3f
000003d0: 31e7 9dbc 7a50 ec3f 0117 ea3f a869 a6bf
000003e0: 7c2f 38bd 76bd cd3e 32d6 ee3c c489 16bc
000003f0: ae29 acbf ce3f a0bd 2797 633b 3047 803b

model.4.bias f4 [3]
1.3172709 1.3478844 1.2874177
00000000: 559c a83f 7a87 ac3f 1aca a43f
