right_agent.pth (torch, 73968 bytes, 6 tensors)

model.0.weight f4 [128, 6]
0	0xbf16c827	-0.5889916
1	0xbe79a848	-0.243806
2	0x3e86e112	0.2634359
3	0x3ef73ce2	0.48288637
4	0xbeca98e3	-0.39569768
5	0x3cca4037	0.024688823
6	0x3c0b2fba	0.008495266
7	0xc00ed522	-2.2317586
8	0x3f0e7d7a	0.5566021
9	0x400f4ac6	2.2389388
10	0x3f0e16d0	0.5550356
11	0xbe333651	-0.17501189
12	0xbffc637b	-1.9717859
13	0xbf81c9b6	-1.0139682
14	0x3e3091d0	0.17243123
15	0xbe3cd293	-0.18439703
16	0x4007a2c0	2.1193085
17	0xbf7284e0	-0.94734
18	0xbe44c7a3	-0.1921678
19	0xbf81636b	-1.0108465
20	0xc02cd016	-2.7002006
21	0xbf19245e	-0.59821117
22	0x3f7720f2	0.96534646
23	0x3f6f9d5c	0.93599486
24	0x3e799082	0.24371532
25	0x3dcfc4fc	0.10144994
26	0x40373924	2.8628626
27	0xbc02d190	-0.007984534
28	0xbea4d718	-0.32195354
29	0xbf26c76c	-0.65148044
30	0x3f3ba4cc	0.73298335
31	0x3e93ec06	0.2889101
32	0xbf232b8f	-0.6373834
33	0xc01786cf	-2.367603
34	0xbf18734a	-0.5955092
35	0xc054f0d2	-3.3271985
36	0xbf6b6a71	-0.9195929
37	0x3e94ff09	0.29100826
38	0xbffc8ad0	-1.9729862
39	0xbc6e9db1	-0.014563964
40	0x3f9d2d37	1.2279423
41	0xc019af45	-2.4013226
42	0xc02923af	-2.642803
43	0x3ea09cd0	0.31369638
44	0x3e3929af	0.18082307
45	0x3dadc3cf	0.08484613
46	0x3cb80abd	0.022466058
47	0x3f7bf96d	0.9842747
48	0x3e1136d4	0.14181072
49	0xbd1dc37a	-0.0385165
50	0x3fafcd98	1.3734617
51	0xbf9e1eb5	-1.2353121
52	0x401ab305	2.4171765
53	0xbfbab3a3	-1.4586071
54	0x3e9d11cb	0.30677637
55	0xbfc1b6fd	-1.5133969
56	0xbe1faeda	-0.15594044
57	0x3ea91529	0.33023956
58	0x3f84e586	1.0382545
59	0xbd1ecd33	-0.038769912
60	0xbe1fbe92	-0.1560004
61	0xbe6ee9cc	-0.23331374
62	0xbe5ba4b8	-0.21449554
63	0x3e72e2cb	0.23719327
64	0x3d7a4a79	0.06110618
65	0xbcba9401	-0.022775652
66	0xbceb4ad0	-0.028722197
67	0xbe2c9259	-0.16852702
68	0xbeb67a47	-0.35640165
69	0x3c9a53d0	0.018838793
70	0x3d94605c	0.072449416
71	0xbd79ff28	-0.06103435
72	0xbe4720c5	-0.19446094
73	0x3f419e0b	0.7563178
74	0xbdc3dfa1	-0.09564138
75	0xbf607b46	-0.876881
76	0x3ddd30d5	0.108003296
77	0xc00f7bd0	-2.241932
78	0xbf768af7	-0.96305794
79	0xc0395b3c	-2.8961935
80	0xbe8888e2	-0.26666933
81	0xbe328ffc	-0.17437738
82	0xbeec1d4b	-0.461161
83	0xbe2932b0	-0.16523242
84	0xbe92d8ca	-0.28681022
85	0xbf8c2abe	-1.0950544
86	0x3fb996af	1.449911
87	0x3f925ffe	1.1435544
88	0xbf3bc3cb	-0.7334563
89	0xbff67b99	-1.9256469
90	0x3e825a62	0.25459582
91	0xbe5c7eae	-0.215327
92	0xbe811da9	-0.2521794
93	0x3d027f41	0.03185964
94	0x3cbcf25b	0.023064783
95	0x3e70c1a1	0.23511364
96	0xbe41d4f1	-0.18928887
97	0xbe88425d	-0.2661313
98	0xbea66357	-0.32497665
99	0xbea54459	-0.32278708
100	0x3eb62816	0.35577458
101	0xbeb0c709	-0.34526852
102	0xbf4cb146	-0.79958
103	0xbd30dc9b	-0.043179136
104	0xbf7120de	-0.94190776
105	0x3fd90a55	1.6956278
106	0xbf7242e7	-0.94633335
107	0x3fb60d77	1.4222859
108	0xbdfd13a8	-0.12357265
109	0xbd727198	-0.059190363
110	0xbd393f80	-0.045226574
111	0x3cb80340	0.022462487
112	0x3d7b94c0	0.061421156
113	0x3e3f0d40	0.18657398
114	0xbe36f98e	-0.17868635
115	0xbe35c568	-0.17751086
116	0xbe138210	-0.14405084
117	0xbe9e6c43	-0.30941972
118	0x3e645910	0.222996
119	0xbe235e73	-0.15953998
120	0xbff2b189	-1.896043
121	0x3d3fc02a	0.04681412
122	0xbce8daa5	-0.02842457
123	0xc02e74e5	-2.7258847
124	0xbf928df6	-1.1449573
125	0xbff6aa8e	-1.9270799
126	0xbe1cc55a	-0.15309659
127	0xbe09ec80	-0.13469124
128	0xbc610ab4	-0.013735462
129	0x3e8ca194	0.27467024
130	0xbe48b5cf	-0.19600604
131	0xbe96da5a	-0.29463464
132	0xbde9a804	-0.114089996
133	0x3e28811e	0.16455504
134	0x4018025a	2.3751435
135	0xbeffd26e	-0.49965233
136	0x3fbe6842	1.4875567
137	0xbf100ed2	-0.56272614
138	0x3f292bb7	0.6608233
139	0x3f88f9f4	1.070128
140	0x3e7467fe	0.23867795
141	0xc0391bee	-2.8923297
142	0xbf00a9cc	-0.5025909
143	0xc096abd6	-4.708476
144	0xc0263ab7	-2.5973337
145	0x3e6651e0	0.2249217
146	0xc0943dd3	-4.632547
147	0x3e98c016	0.2983405
148	0x404fde77	3.2479532
149	0xbe4a6271	-0.19764115
150	0xbf9979c5	-1.1990286
151	0x3e8ca69c	0.27470863
152	0xbe425b37	-0.18980108
153	0xbd761ff2	-0.06008906
154	0xbffd0021	-1.9765664
155	0xc0679298	-3.6183224
156	0xbee31b27	-0.44356653
157	0xbcfe9c88	-0.0310805
158	0xbe28ddbb	-0.16490833
159	0x3e882ebc	0.26598155
160	0x3e4ce9eb	0.20011108
161	0xbed4da5e	-0.4157285
162	0xbd8cf3a0	-0.06882405
163	0xbdb7af93	-0.08969035
164	0xbea2108b	-0.31653246
165	0x3d1dfb10	0.03856951
166	0x3e9ad540	0.30240822
167	0x3b3825f9	0.0028098805
168	0x3e4cd486	0.20002946
169	0xbf7f2b4d	-0.99675447
170	0xbf2ca0ef	-0.67433065
171	0x3fa41c3d	1.2821118
172	0xbe9f9921	-0.31171516
173	0x4038922c	2.8839216
174	0xc03c0d7f	-2.9383237
175	0xbe1c7115	-0.15277512
176	0xbeb2e423	-0.3493968
177	0x3ffaf354	1.9605508
178	0xc012d455	-2.2942097
179	0xbe5f180d	-0.21786518
180	0x3e132c4a	0.14372364
181	0xbe93d28e	-0.28871578
182	0xbe0d57c1	-0.13803007
183	0xbe9054e3	-0.28189763
184	0x3daa66ed	0.08320413
185	0x3e3b6690	0.18300843
186	0x3f215f0e	0.63035667
187	0x3ee473e3	0.44619665
188	0x3c9158b8	0.0177425
189	0x3e5aa3d7	0.21351562
190	0xbd8f230d	-0.06989107
191	0x3e76327c	0.24042696
192	0x3f7d53a9	0.9895578
193	0xbe0d3609	-0.13790144
194	0xc09059b2	-4.510949
195	0x3fe5bcdb	1.7948259
196	0xbf3252fa	-0.6965786
197	0x3fc7a394	1.5596795
198	0xbf8102cc	-1.0078979
199	0xbde75498	-0.11295432
200	0x3fabefff	1.3432616
201	0xbea852f1	-0.3287578
202	0x3fdcd843	1.7253498
203	0xbf97667d	-1.1828152
204	0xbe81ed90	-0.25376558
205	0xbf810384	-1.0079198
206	0xbe4923cf	-0.19642566
207	0xbfba6646	-1.4562461
208	0xbf7b262e	-0.9810513
209	0xbfff757a	-1.9957726
210	0xbfadeb71	-1.3587476
211	0x3ee66895	0.45001665
212	0xc006d9d0	-2.1070442
213	0x3faa136a	1.3287175
214	0xc00a828f	-2.1642187
215	0xbe797a14	-0.24362975
216	0x3f0d3200	0.5515442
217	0xbe931edd	-0.28734484
218	0xbfcdd4e0	-1.6080589
219	0x3ed6e3ac	0.41970575
220	0xc0534147	-3.3008592
221	0x3ef30af6	0.474693
222	0xbe86919b	-0.26282963
223	0xbf338dd5	-0.70138294
224	0x3e3d8fba	0.18511859
225	0xbf8417c5	-1.0319754
226	0xc0249db0	-2.5721245
227	0xbfdde13d	-1.7334362
228	0xc06a8ecc	-3.6649656
229	0x3da6389c	0.08116266
230	0xbf331172	-0.69948494
231	0x401733c5	2.3625348
232	0xc0843d1d	-4.13246
233	0xbfce389e	-1.6111028
234	0xbdd65106	-0.10464673
235	0xc090770e	-4.514533
236	0x3ef1de7f	0.47240064
237	0xc087c25c	-4.2424755
238	0xbfaf76f9	-1.3708183
239	0xbfb93bcd	-1.4471375
240	0x3b850888	0.004059855
241	0xbf312660	-0.6919918
242	0x3f6eee0b	0.93331975
243	0xbf20f044	-0.62866616
244	0xbfc36b62	-1.5267146
245	0x3e005bb9	0.1253499
246	0xbdb1182d	-0.08647189
247	0xbe0c4eac	-0.13701886
248	0x3e878ea1	0.26476005
249	0xbd2177ee	-0.039421014
250	0x3f40e50a	0.75349486
251	0x3eec1a8f	0.46114013
252	0xbf726f1d	-0.94700795
253	0xc0f5ed66	-7.6852293
254	0xbc605064	-0.013691042
255	0xbf144a9d	-0.5792635

model.0.bias f4 [128]
0	0xbf70e773	-0.94103163
1	0xbf16a65d	-0.588476
2	0xbf8da132	-1.1064818
3	0xbf0c6ed9	-0.5485664
4	0xbfea1e77	-1.8290547
5	0x3f2d5464	0.67706895
6	0xbf878174	-1.0586381
7	0xbf484e01	-0.78244025
8	0x3e86c0dd	0.26319018
9	0xbfcd7c68	-1.6053591
10	0xbec6b52c	-0.38810098
11	0xbecefba5	-0.40426365
12	0x3ed90b1e	0.42391294
13	0xbeaec208	-0.3413241
14	0x3f3bced2	0.7336246
15	0xbec684a4	-0.38773072
16	0xbeaed990	-0.34150362
17	0x3e803db2	0.2504707
18	0xbeb7261e	-0.3577127
19	0xbe9db81c	-0.30804527
20	0x3f7114fd	0.9417265
21	0xbee52106	-0.44751757
22	0xbf95a2d9	-1.1690322
23	0x3f024df8	0.5090022
24	0xbf436719	-0.7632919
25	0x3e2be401	0.16786195
26	0xbea53673	-0.32268104
27	0xbe9a37fa	-0.30120832
28	0xbd3cfa40	-0.046137094
29	0xbcc94789	-0.024570243
30	0xbe42ec6f	-0.19035505
31	0xbfab0894	-1.3361993
32	0x3ec7365e	0.38908666
33	0xbe8c2cbe	-0.27377886
34	0x3f7115c7	0.94173855
35	0x3f42a03b	0.7602574
36	0x3eb5b275	0.35487714
37	0xbd222078	-0.039581746
38	0x3f5628b0	0.83655834
39	0x3ed4f24d	0.4159111
40	0xbfdd92c8	-1.7310419
41	0xbf7a2857	-0.97717804
42	0xbf51ac08	-0.81903124
43	0xbe9c6084	-0.30542386
44	0x3f22be98	0.63572073
45	0xbf39798f	-0.7245111
46	0x3f851709	1.0397655
47	0xbe946c11	-0.28988698
48	0x3e94c8fe	0.29059595
49	0xbd4c8988	-0.049935848
50	0x3e5d93b9	0.21638383
51	0x3e917638	0.28410506
52	0xbe11ee23	-0.14250998
53	0xbef1bfb4	-0.4721657
54	0x3fb651fc	1.424377
55	0xbd9b9e6a	-0.075985745
56	0xbec5ba83	-0.3861886
57	0xbfa6b246	-1.3023155
58	0x3f2a6fe9	0.6657701
59	0x3dc6e526	0.09711675
60	0xbec312da	-0.3810032
61	0xc01bc547	-2.4339159
62	0xbe6429c3	-0.22281556
63	0xbf63d67b	-0.88999146
64	0xbf4d2e73	-0.80149
65	0xbdbece81	-0.09316731
66	0x3e356fdf	0.17718457
67	0xbeafd6bb	-0.34343514
68	0xbeb5a28b	-0.35475573
69	0xbeb34842	-0.35016066
70	0xbedb4bf6	-0.4283139
71	0x3f7c31fc	0.9851377
72	0xbf5c4a62	-0.86051
73	0xbf84b90a	-1.036897
74	0x3e7e23dc	0.24818367
75	0xbee4fe99	-0.44725493
76	0xbf183df6	-0.59469545
77	0xbd84d9ee	-0.06486879
78	0xbf6d1fe7	-0.92626804
79	0x3f2d8ef3	0.6779625
80	0xbf7cfa82	-0.98819745
81	0xbe8c7cd4	-0.27438986
82	0x3f93c417	1.1544217
83	0x3ef66cb7	0.48129818
84	0xbf458f98	-0.7717223
85	0xbf16d1de	-0.5891398
86	0xbf221f51	-0.63329035
87	0xbf24e054	-0.644048
88	0xbf48fb39	-0.78508335
89	0xbfc75e4b	-1.5575651
90	0x3f54d9a0	0.8314457
91	0xbeb36875	-0.35040632
92	0xbf56ce8f	-0.83908933
93	0x3ec7ca7b	0.39021668
94	0xbec0b304	-0.37636578
95	0xbf5e2263	-0.8677122
96	0xbf57fdb2	-0.84371483
97	0x3fc47914	1.534945
98	0x3e0d51de	0.13800761
99	0x3ea91daa	0.33030444
100	0x3f119812	0.56872666
101	0x3f1a6106	0.60304296
102	0xbe4dfcf2	-0.20116022
103	0x3fc27520	1.5191994
104	0x3ece46ff	0.4028854
105	0xbf213346	-0.6296886
106	0xbf6ebf0a	-0.9326025
107	0xbec0f3c1	-0.3768597
108	0xbfcd4dd0	-1.6039371
109	0xbfffe206	-1.9990852
110	0xbf2af8c8	-0.6678586
111	0xbdaa7b16	-0.08324258
112	0xbefde01a	-0.49585038
113	0x3db9c754	0.09071222
114	0xbf2c516f	-0.6731176
115	0xbf054389	-0.52056175
116	0x3e5beaeb	0.21476333
117	0x3ee55f69	0.44799355
118	0x3eda48e8	0.42633748
119	0x3eaa2b64	0.3323623
120	0x3d7fb021	0.06242383
121	0xbe38a644	-0.18032175
122	0xbd9f1bab	-0.07768949
123	0xc003da27	-2.06019
124	0xbeb4e013	-0.35327205
125	0xbf403818	-0.7508559
126	0xbeebb9a5	-0.46040073
127	0xbf00d932	-0.50331414

model.2.weight f4 [128, 128]
0	0x3df90809	0.12159736
1	0xc06730e2	-3.6123586
2	0xbffc9bf9	-1.9735099
3	0xbff7cf57	-1.936015
4	0x3fa64311	1.2989217
5	0xbf882e27	-1.0639085
6	0x3dc56b89	0.09639651
7	0xbfbbbb70	-1.4666576
8	0xc0388f83	-2.8837593
9	0x3fa1c5cc	1.2638488
10	0x3e5a94d7	0.2134584
11	0x3cb6b5f8	0.022303566
12	0xc0988efc	-4.767454
13	0xbf0eb748	-0.55748415
14	0xbfca3cf5	-1.5799853
15	0x3d0d7aac	0.034540817
16	0xbd94cd87	-0.07265764
17	0xbfe4f690	-1.7887745
18	0x3d9a0129	0.075197525
19	0xbd9c5707	-0.07633787
20	0x4056edc2	3.3582616
21	0xbd83eee5	-0.0644205
22	0x3ff5b9e0	1.919735
23	0xbfd0433d	-1.627052
24	0x3e525833	0.20541458
25	0xbfe5575f	-1.7917289
26	0xbdba52e8	-0.09097844
27	0xbb9775b0	-0.0046221837
28	0xbfe819f4	-1.813292
29	0x400d2ea6	2.2059722
30	0xbd0260fb	-0.03183077
31	0x3ed840e6	0.42237014
32	0x3f92d836	1.1472232
33	0xbfd53d6c	-1.665937
34	0xbeb070ed	-0.34461156
35	0x3fe16097	1.7607602
36	0xc0a562dc	-5.168318
37	0xbf906355	-1.1280314
38	0x3fe26aef	1.7688884
39	0xbf355938	-0.7083926
40	0x3fcf8e96	1.6215389
41	0xbedbc6bc	-0.4292506
42	0xbfca0a37	-1.5784367
43	0x3ec9743b	0.3934649
44	0xc0ce5448	-6.4477882
45	0xbecb58a6	-0.3971607
46	0xc0aabf38	-5.335842
47	0xc00a2cd1	-2.1589854
48	0xbea9165a	-0.33024865
49	0xbefba0cd	-0.4914612
50	0xc09dbc98	-4.9292717
51	0xbedd9bd6	-0.43282956
52	0xbce48acf	-0.02789822
53	0x3f10cdab	0.56563824
54	0x3ece8280	0.4033394
55	0x3e00cc67	0.12577973
56	0xbdadde06	-0.08489613
57	0x3f881667	1.0631837
58	0xbf3410a9	-0.7033792
59	0xc00ce26e	-2.2013202
60	0x3f0aacab	0.5416972
61	0x40c82f81	6.255799
62	0x3c24422e	0.010025544
63	0xbf9f4d55	-1.2445475
64	0x3f15c5c2	0.5850488
65	0xc0132e36	-2.2996955
66	0xc087c840	-4.2431946
67	0xbde5763d	-0.11204193
68	0x3d744876	0.059639417
69	0xbf5a46e0	-0.85264397
70	0xbf039acd	-0.5140808
71	0xc02c73a9	-2.6945593
72	0x3f308899	0.6895843
73	0x3f1450cc	0.57935786
74	0xbf8cafca	-1.0991147
75	0xc0a1c3a2	-5.055131
76	0xbe7f6603	-0.24941258
77	0xbfd0563b	-1.6276315
78	0x3e513432	0.20430067
79	0xbfd4cd47	-1.6625146
80	0x3f082108	0.531754
81	0xbf3de435	-0.7417634
82	0xbe731213	-0.23737364
83	0x3f9d6139	1.2295295
84	0x3cc6a7f0	0.02425
85	0xbe8105ef	-0.2519984
86	0x3f875dfa	1.0575554
87	0x3ff23d9a	1.8925049
88	0x3d422ae9	0.047404204
89	0x4086683b	4.2002234
90	0xc00e9d01	-2.2283328
91	0xc099e90f	-4.8096995
92	0xbdb4aa43	-0.08821537
93	0x3fd1f78c	1.640367
94	0xbca0d023	-0.019630497
95	0x3f5a96eb	0.8538653
96	0xbee39820	-0.44452
97	0x3dd34a68	0.10316926
98	0x3faededb	1.366176
99	0xbfb62f9b	-1.4233278
100	0x3f971f5b	1.1806444
101	0xc0737d58	-3.8045254
102	0xbf703d4a	-0.9384352
103	0xbfc1fe9b	-1.5155824
104	0xbfc0e31f	-1.5069312
105	0xc0a4caa3	-5.149736
106	0xbd0acf73	-0.033889245
107	0x3d331a21	0.04372609
108	0x3f5f7abd	0.8729666
109	0x409a3d56	4.8199873
110	0xc0b84b3f	-5.7591853
111	0xc031ad6e	-2.7762103
112	0xbf704152	-0.9384967
113	0xc0683bb6	-3.6286445
114	0x3e0a1991	0.13486315
115	0xbf836ffe	-1.0268552
116	0x3f80a201	1.004944
117	0xc0d53f73	-6.6639953
118	0xbef8a991	-0.4856687
119	0x40ae4dbc	5.446989
120	0x3edacfb9	0.42736605
121	0x3d3a291e	0.04544937
122	0xc0a063fc	-5.012205
123	0x4037d2e0	2.8722458
124	0x3ed41f83	0.41430292
125	0xbe479c58	-0.19493234
126	0xbda28132	-0.07934798
127	0x3f26828d	0.65042955
128	0xbb24622a	-0.0025082924
129	0xbcb27564	-0.021784492
130	0xbd13f39c	-0.036120996
131	0xbdce3a35	-0.10069696
132	0xbdb5a99b	-0.0887024
133	0xbda077e0	-0.07835364
134	0xbcabd552	-0.020975742
135	0xbd348860	-0.04407537
136	0xbc5a6b92	-0.013331311
137	0xbc0a434e	-0.008438898
138	0x3d569afa	0.05239389
139	0xbcad933c	-0.02118837
140	0x3ba22c5c	0.0049491357
141	0xbdaaccca	-0.08339842
142	0x3d80ae3c	0.062832326
143	0x3d1fb6a2	0.03899253
144	0xbd3db66a	-0.04631654
145	0xbcc476d6	-0.023982447
146	0x3ccf8e74	0.025336482
147	0x3da6d96f	0.08146941
148	0x3c8637ce	0.016384032
149	0xbd9d1f03	-0.07671931
150	0x3d15a61f	0.03653538
151	0x3b725920	0.0036979392
152	0xbde97550	-0.11399329
153	0xbddba097	-0.107239895
154	0x3c960aa8	0.018315628
155	0xbc8213a0	-0.015878499
156	0xbddf24c4	-0.10895684
157	0x3d36593c	0.044518694
158	0xbd1bd8f1	-0.03804869
159	0x3e48597d	0.19565387
160	0xbd6b3ee4	-0.057433024
161	0xbd6eacde	-0.058270328
162	0xbdad7ced	-0.08471093
163	0xbd046352	-0.03232128
164	0xbe8bf4f1	-0.27335313
165	0x3c265d30	0.010154054
166	0xbdb88845	-0.09010366
167	0x3cdc8ddf	0.026923118
168	0xbadab294	-0.00166853
169	0xbd90e41f	-0.07074761
170	0x3d9fd733	0.07804718
171	0xbe48188c	-0.19540614
172	0xbca4e892	-0.02013043
173	0xbd7e589b	-0.06209622
174	0xbdb739cd	-0.089465715
175	0x3d893853	0.06700196
176	0x3dbb3c5b	0.09142371
177	0xbe097266	-0.13422546
178	0xbe1a5ef9	-0.15075292
179	0xbd8c540e	-0.0685197
180	0x3ccdc8e1	0.0251202
181	0xbdb730b3	-0.089448355
182	0xbd87283c	-0.06599471
183	0xbcd4d948	-0.025982514
184	0xbcbd5b10	-0.023114711
185	0xbca0571f	-0.019572793
186	0xbc0dc2c6	-0.008652395
187	0xbd47883e	-0.048713915
188	0x3bb5f850	0.005553283
189	0xbdc7ee1a	-0.09762211
190	0x3ae0d140	0.0017152205
191	0xbd9ef456	-0.07761447
192	0x3d173744	0.03691794
193	0xbdc26060	-0.09491038
194	0x3dbc28c8	0.09187466
195	0xbd888f10	-0.06667912
196	0xbad0a800	-0.0015919209
197	0xbe3b7eca	-0.18310085
198	0xbdc93414	-0.09824386
199	0xbd835e6e	-0.064144954
200	0xbd1915f0	-0.037374437
201	0x3d74d777	0.059775796
202	0xbb34d419	-0.002759224
203	0xbd329601	-0.043600086
204	0xbdaf4c57	-0.085594825
205	0x3c0687d1	0.008211092
206	0x3d86e2cc	0.06586227
207	0xbe3e2166	-0.18567428
208	0xbdaac9d5	-0.08339278
209	0xbd078d9a	-0.033094026
210	0x3c94ba75	0.018155316
211	0xbcde1fa5	-0.027114699
212	0x3d8dd4f5	0.06925384
213	0xbce8a0c6	-0.028396975
214	0xbb14d305	-0.0022708785
215	0x3e079a6b	0.132425
216	0xbe458025	-0.19287165
217	0xbe0dfeb4	-0.13866693
218	0xbcf960c3	-0.030441647
219	0xbe049116	-0.12945971
220	0xbafd60c7	-0.001933121
221	0x3b7569f3	0.0037447184
222	0x3da53391	0.08066476
223	0xbdef4b8f	-0.116843335
224	0x3959d1ee	0.00020772938
225	0x3bcf7fff	0.006332397
226	0xbd90cdfc	-0.070705384
227	0xbd5baa37	-0.053629126
228	0xbd67faee	-0.05663579
229	0xbd6c654f	-0.057713803
230	0xbda07e6e	-0.078366145
231	0xbd5b459a	-0.053533174
232	0x3d72848c	0.059208438
233	0xbeaf1ef6	-0.3420331
234	0xbcc2b12e	-0.023766126
235	0xbd1fb40d	-0.03899007
236	0xbe1f740b	-0.1557161
237	0x3d400b6a	0.046885885
238	0xbd6999f0	-0.057031572
239	0x3b18ee51	0.0023335407
240	0x3cabb5a2	0.020960633
241	0xbd94b581	-0.072611816
242	0xbc4244fa	-0.011857266
243	0xbe2cd1a7	-0.16876851
244	0xbd0a8551	-0.033818547
245	0xbd82ccdb	-0.06386729
246	0xbca8dadd	-0.020612175
247	0xbc40d7d1	-0.011770205
248	0xbe4e4728	-0.20144331
249	0x3da3748d	0.07981215
250	0xbdcce9ed	-0.10005555
251	0x3d6790cf	0.056534585
252	0xbd867869	-0.06565935
253	0xbe46887b	-0.19388
254	0x3ce8e4b8	0.028429374
255	0xbd48308f	-0.048874434

model.2.bias f4 [128]
0	0xbfd47b2a	-1.6600087
1	0xbdb31070	-0.087433696
2	0xbdbb4293	-0.091435574
3	0xbd85595f	-0.06511187
4	0xbf511709	-0.81675774
5	0xbef53769	-0.47893837
6	0xbd27f624	-0.041006222
7	0xbe4b6865	-0.19864042
8	0xbe264d33	-0.16240387
9	0xbea885c2	-0.3291455
10	0x3cd3882e	0.025821771
11	0xbe048d3f	-0.12944506
12	0xbdda8b95	-0.106711544
13	0xbd9ca178	-0.07647985
14	0xbe4a3127	-0.19745313
15	0xbd582f07	-0.052779224
16	0xbf86f849	-1.0544521
17	0xbe091355	-0.13386281
18	0x3dc49d19	0.096002765
19	0xbee74069	-0.4516633
20	0xbee1329d	-0.43983927
21	0xbe12d170	-0.14337707
22	0xbd323a9b	-0.04351292
23	0xbe467283	-0.1937962
24	0xbdc631ce	-0.09677468
25	0xbdf06816	-0.11738603
26	0xbe11d2f1	-0.14240624
27	0xbe66d39c	-0.2254166
28	0xbecd6a21	-0.40120032
29	0xbf22adf7	-0.635467
30	0xbd9f8bb0	-0.07790315
31	0xbf9745f6	-1.1818225
32	0xbe3c0723	-0.18362097
33	0xbdea24c0	-0.11432791
34	0xbd99c3f0	-0.07508075
35	0xbd0514ec	-0.032490656
36	0xbccbe590	-0.024889737
37	0x3ecfa5f2	0.40556294
38	0xbe3dd29a	-0.1853737
39	0xbdd18113	-0.10229697
40	0x3d2f3859	0.042778347
41	0xbc9bcf02	-0.019019607
42	0x3df5de29	0.12005264
43	0xbe022486	-0.12709245
44	0xbe1c43f4	-0.15260297
45	0x3d8e307e	0.06942843
46	0xbeb8b03c	-0.36071956
47	0xbdd7bb93	-0.10533824
48	0xbd7c9ec9	-0.061674867
49	0xbea99291	-0.33119634
50	0xbdb55e97	-0.08855932
51	0xbe0d533b	-0.13801281
52	0xbd101fae	-0.035186462
53	0xbd417ecf	-0.047240075
54	0xbe1aff08	-0.15136349
55	0xbdf888b2	-0.121354476
56	0xbd637d2d	-0.0555393
57	0xbe0c3f46	-0.13696012
58	0xbe7682c9	-0.24073328
59	0x3e3569c9	0.17716135
60	0xbe0c96b7	-0.13729368
61	0xbe34b58d	-0.17647381
62	0xbdad1064	-0.08450392
63	0xbe9182c9	-0.28420094
64	0x3f4d1f6a	0.8012606
65	0x3de51f4d	0.11187611
66	0xbd8ea837	-0.06965678
67	0xbcfbfbd5	-0.030759731
68	0xbde1832c	-0.11011347
69	0xbe442872	-0.19156054
70	0xbe0ac621	-0.13552143
71	0x3e8f24f1	0.27957872
72	0xbe7ce005	-0.24694832
73	0xbe0b0ad0	-0.13578343
74	0xbda5abc5	-0.08089403
75	0xbe57d8e2	-0.21078828
76	0xbc16d8b5	-0.00920694
77	0xbdcedc9e	-0.10100673
78	0xbe80c3ba	-0.25149328
79	0xbd8841a8	-0.06653148
80	0xbdba1a95	-0.09087101
81	0xbdcd0f61	-0.10012699
82	0xbde234c7	-0.11045223
83	0xbee58ffd	-0.44836417
84	0xbd86e1ae	-0.06586014
85	0xbe1a9556	-0.1509603
86	0x3fc51118	1.5395842
87	0xbe006e5f	-0.12542103
88	0xbd86eec7	-0.06588512
89	0xbecd83a5	-0.401395
90	0xbe4374f3	-0.19087581
91	0x3f333b30	0.7001219
92	0xbde81bdc	-0.11333439
93	0xbde3e344	-0.11127332
94	0xbdf951b1	-0.121737845
95	0xbd8aa32f	-0.06769406
96	0xbc2a104a	-0.01037986
97	0xbea4b84c	-0.32171857
98	0xbf2b441f	-0.6690082
99	0xbde3dc5f	-0.11126017
100	0xbf74953e	-0.95540226
101	0xbf3bf315	-0.7341779
102	0xbeb6a7a2	-0.3567477
103	0xbe0d08ac	-0.1377284
104	0xbda22dc9	-0.07918889
105	0xbf80b113	-1.0054039
106	0xbdc72a80	-0.09724903
107	0xbd408ed3	-0.047011208
108	0xbd57e4b7	-0.052708354
109	0xbde47328	-0.11154777
110	0xbd1e2c73	-0.03861661
111	0xbded4eb1	-0.11587275
112	0xbfefcb82	-1.8733981
113	0xbdb35901	-0.087572105
114	0x3f8465fd	1.0343624
115	0xbd4aabdd	-0.049480308
116	0xbd989f19	-0.074522205
117	0xbdf89474	-0.1213769
118	0x3e6e6663	0.23281245
119	0xbe196d1b	-0.14983027
120	0xbe007e73	-0.12548237
121	0xbee4b40d	-0.44668618
122	0xbec2e6e4	-0.3806678
123	0xbf6f710d	-0.93531877
124	0x3f6ccab4	0.924968
125	0xbe1d3153	-0.15350847
126	0xbe375572	-0.17903689
127	0xbc981724	-0.018565722

model.4.weight f4 [3, 128]
0	0x3fc26658	1.5187483
1	0x3d00362f	0.031301674
2	0xbd1477fe	-0.036247246
3	0xbcc87ba7	-0.024473025
4	0x3e38d9f3	0.18051891
5	0x3f68e4f6	0.90974367
6	0x3e0a81c9	0.13526072
7	0xbcdb61ac	-0.026779972
8	0xbd2a0793	-0.04151113
9	0xbf8cf721	-1.1012918
10	0x3f59d3b8	0.8508868
11	0xbd910bd1	-0.07082332
12	0x3c32ddb6	0.010917118
13	0x3bd6a97a	0.006550965
14	0xbafac896	-0.0019133266
15	0xbcbcdd78	-0.023054823
16	0x3f460f00	0.7736664
17	0x4019bd71	2.4021876
18	0x3ffb9f8b	1.9658064
19	0xbfa886ab	-1.3166097
20	0x3fb2c95b	1.3967699
21	0xbd61163e	-0.054952852
22	0xbd2b1eb6	-0.041777335
23	0x3fb4c1ec	1.412168
24	0x3d4e2e83	0.050337326
25	0x3b469694	0.0030302154
26	0x3abf0f67	0.0014576734
27	0x3f1dface	0.6171082
28	0x3f747926	0.9549736
29	0xbf820b88	-1.0159769
30	0xbd7ed2df	-0.06221282
31	0xbf17ed43	-0.5934641
32	0x3f92edb7	1.1478795
33	0xbda36969	-0.0797909
34	0xbd9309c9	-0.07179601
35	0xbc424a84	-0.011858586
36	0x3b01d8a7	0.0019812973
37	0x3ff96d0e	1.9486406
38	0x3e90b5e2	0.28263766
39	0x3c5ea25b	0.013588513
40	0x3f5c91c6	0.8615993
41	0x3c3a9844	0.011388842
42	0x3f31652e	0.6929501
43	0x3e8149c7	0.252516
44	0xbcb9068c	-0.02258613
45	0x3f4c9ecc	0.79929805
46	0x4011656d	2.2718155
47	0xbc17fece	-0.009277059
48	0xbd5f867d	-0.054571617
49	0x3f60515d	0.8762415
50	0xbbef7a5c	-0.0073082875
51	0x3c1eb336	0.009686282
52	0xbca34b54	-0.01993338
53	0x3f503353	0.81328315
54	0x3d238d0c	0.039929435
55	0xbd1b9f26	-0.037993573
56	0x3d4dce07	0.05024531
57	0x3b0c02f4	0.0021364065
58	0x3f489c4f	0.7836351
59	0xbfcc4d0d	-1.5961014
60	0xbdbdadd7	-0.09261673
61	0xbd971129	-0.0737632
62	0x3cbf702d	0.02336892
63	0x3e34c525	0.1765333
64	0xbe482a2a	-0.19547334
65	0x3f41459e	0.7549685
66	0x3c365d67	0.011130667
67	0xbf16f17c	-0.58962226
68	0x3cc7d55a	0.024393726
69	0x3dc2944f	0.09500944
70	0x3bf3ef63	0.0074443086
71	0xbe6f5f5e	-0.23376223
72	0x3f7f5913	0.9974529
73	0xbbb4ef3e	-0.005521684
74	0xbd04d12e	-0.03242605
75	0x3f833b39	1.0252448
76	0xbc028ccd	-0.00796814
77	0xbd0cee95	-0.034407217
78	0x3f3c8d15	0.73652774
79	0x3cecbdcd	0.028899098
80	0xbc003b89	-0.007826694
81	0xbd88d7f4	-0.06681815
82	0xbbc032ac	-0.0058654156
83	0xbe9da69b	-0.30791172
84	0xbcbd2620	-0.023089468
85	0xbc97362e	-0.018458452
86	0x3efb946a	0.49136668
87	0xbd1c3baf	-0.038142856
88	0x3f9d15f0	1.227232
89	0x3f384c58	0.7199149
90	0x3d896c07	0.06710058
91	0x3fe658c9	1.7995845
92	0x3abad760	0.001425486
93	0x3cb55145	0.022133479
94	0xbd1d2db4	-0.038373664
95	0x3db84ed0	0.08999407
96	0x3f5b9239	0.85769993
97	0x3f61b05b	0.8815972
98	0x3f0d5e1d	0.5522173
99	0x3c9ba8fe	0.01900148
100	0xbe7d99d3	-0.2476571
101	0x3f8c2955	1.0950114
102	0xbf8e0f5e	-1.109844
103	0xba1be461	-0.0005946812
104	0x3f77cebe	0.9679984
105	0x407518e8	3.8296452
106	0x3b40d66b	0.0029424678
107	0x3d9c7d08	0.07641035
108	0x3b90f8da	0.0044241967
109	0x3ce5430b	0.02798607
110	0xbd4d0b24	-0.050059453
111	0x3cdfedc7	0.02733506
112	0xbea3a7d5	-0.31963983
113	0xbc0feeda	-0.008784974
114	0xbe3e2ca9	-0.18571724
115	0x3f78181b	0.9691178
116	0xbd0fd0a3	-0.03511108
117	0x3b9ddebd	0.0048178122
118	0x3f501c40	0.81293106
119	0xbd48a0e6	-0.04898157
120	0xbc126df6	-0.00893735
121	0xbf68ef38	-0.9099002
122	0x3f929612	1.1452048
123	0x3fc9c61a	1.5763581
124	0xbdf935d1	-0.12168468
125	0x3b2cc693	0.0026363477
126	0x3fa63eea	1.298795
127	0x3a7c3826	0.0009621404
128	0x3fe4f5a0	1.7887459
129	0x3de196f0	0.11015117
130	0xbc45fa39	-0.0120835835
131	0xbdc42849	-0.09577996
132	0x3e18b2a2	0.14911893
133	0x3f3fd475	0.7493356
134	0x3c040c9a	0.008059645
135	0xbccf95cb	-0.025339982
136	0xbd121084	-0.03566028
137	0xbf7c823f	-0.9863624
138	0x3f4450ef	0.76685995
139	0xbd37a07e	-0.04483079
140	0x3b73d90c	0.0037208227
141	0xbda479f3	-0.080310725
142	0x3bd424d2	0.006474116
143	0xbccad4ee	-0.024759736
144	0x3f3ce973	0.73793715
145	0x401b9b8f	2.4313695
146	0x3ffad16f	1.9595164
147	0xbfd34f35	-1.6508547
148	0x3f9af157	1.2104901
149	0xbd7edd76	-0.06222292
150	0x3d3c5830	0.04598254
151	0x3f9fe65b	1.2492174
152	0x3927c785	0.00016000688
153	0xbd71a44c	-0.058994576
154	0xbc64dd18	-0.0139687285
155	0x3f020ce4	0.5080092
156	0x3f8d217a	1.1025841
157	0xbf7d6e0d	-0.9899605
158	0x3cd0e456	0.025499504
159	0xbe98c727	-0.2983944
160	0x3f529f84	0.8227465
161	0xbcf801b3	-0.030274248
162	0x3c6b2d0f	0.0143540045
163	0x3b795a08	0.0038048048
164	0xbbf1388c	-0.0073614772
165	0x3fda9aba	1.7078469
166	0x3e92de46	0.28685206
167	0x3c8a5eef	0.016890971
168	0x3f4b1606	0.7933048
169	0xbcd44dc0	-0.02591598
170	0x3f381889	0.7191244
171	0x3e81c5f5	0.25346342
172	0xbc8b706e	-0.017021384
173	0x3f25c1a5	0.64748603
174	0x400e9652	2.2279248
175	0xbcb018a8	-0.021496132
176	0x3cd9e66d	0.026599133
177	0x3f589215	0.84597903
178	0xbd6e8ace	-0.058237843
179	0x3db7aac6	0.08968119
180	0xbca10c5e	-0.019659217
181	0x3f5d7a0a	0.8651434
182	0xbd79112a	-0.060807385
183	0x3cc73753	0.024318373
184	0x3d2c8df6	0.042127572
185	0xbcd992b7	-0.026559217
186	0x3f5f2279	0.87161976
187	0xbff358ea	-1.901151
188	0x3d63402c	0.05548112
189	0xbc7f2efb	-0.015575166
190	0xbcfb455b	-0.03067272
191	0x3d83df81	0.06439114
192	0xbe4705cc	-0.19435805
193	0x3f25eaef	0.64811605
194	0xbd0204e8	-0.03174296
195	0xbf4d74e3	-0.8025648
196	0x3dbc91e6	0.092075154
197	0x3d02ad48	0.031903535
198	0xbc6cc69c	-0.014451649
199	0xbe6cc39d	-0.23121496
200	0x3f917432	1.1363585
201	0x3d1e722b	0.038683098
202	0x3d3340e7	0.043763068
203	0x3fa46171	1.2842237
204	0x3b5b44bb	0.0033457715
205	0xbd5ea197	-0.054353323
206	0x3f74e582	0.956627
207	0xbd4adcc0	-0.04952693
208	0xbd5a1833	-0.053245734
209	0xbc524ec0	-0.012836158
210	0xbc394092	-0.011306899
211	0xbec94334	-0.39309084
212	0xbd427140	-0.047471285
213	0xbd8d3174	-0.06894198
214	0x3ef4778c	0.47747457
215	0xbd724da3	-0.05915607
216	0x3f9f055d	1.2423512
217	0x3f37e7be	0.71837986
218	0xbda40678	-0.08009046
219	0x40002ae8	2.0026188
220	0xbd54d8b4	-0.051964477
221	0xbc92d47a	-0.017923582
222	0x3c250126	0.010071075
223	0x3cb135f0	0.021632165
224	0x3f600c46	0.8751873
225	0x3f444d4f	0.76680464
226	0x3edd979f	0.4327974
227	0x3db18726	0.08668356
228	0xbe7677fe	-0.24069211
229	0x3f8d45d2	1.1036932
230	0xbf6bf62b	-0.921725
231	0xbc2157f3	-0.009847629
232	0x3f9ee0ff	1.2412413
233	0x4080d4ba	4.0259676
234	0xbbc71db8	-0.006076541
235	0xbd280b8f	-0.041026648
236	0x3db59f30	0.08868253
237	0xbd1d9182	-0.038468845
238	0x3d23307f	0.03984117
239	0x3cb8cc08	0.022558227
240	0xbe89ed15	-0.26938692
241	0xbcd14e6e	-0.025550094
242	0xbe3ea291	-0.18616702
243	0x3f53cb5d	0.8273218
244	0xbae4ce96	-0.0017456587
245	0xbd55cbc4	-0.05219628
246	0x3f5eea3f	0.8707618
247	0xbaa70425	-0.0012742324
248	0xbce975c2	-0.028498534
249	0xbf56070d	-0.8360451
250	0x3fa9fad1	1.3279668
251	0x3fd44d21	1.6586038
252	0xbdf58eca	-0.119901255
253	0x3c461dff	0.012092113
254	0x3fd37f85	1.6523291
255	0x3d2828d1	0.04105455

model.4.bias f4 [3]
0	0x3f815e90	1.0106983
1	0x3f822a5b	1.0169176
2	0x3f81769f	1.0114325
