right_agent.pth (torch, 73904 bytes, 6 tensors)

model.0.weight f4 [128, 6]
00000000: 47be 113f 7b4c d83d f867 65be d00c 39bf
00000010: 9638 e63f 0cf9 05bf 8213 b8be a9be 6cbf
00000020: d824 b1bd 7e63 9f3f ff6e 04c0 552a 0c3f
00000030: 6db9 b5bd 03af 6c3f 0a69 d73f 9f80 06c0
00000040: 316a f83e 2ec0 c5bf da3e 793d 7959 f5bd
00000050: a8c8 7d3e 317f 70be c9ca 0cbe f31c 6f3d
00000060: 12d7 a13e 37b9 7c3f 5f90 193f f80a d7bf
00000070: f678 2d3f e636 9fbf 9e62 f6bf 9fbf 283e
00000080: d96b 6b3e c051 243e 99d1 a2bf b9d1 25be
00000090: 2098 143d c9fd 2fbe e278 03be 7c30 39be
000000a0: 001e 943b f162 6cbe 2aab 7fbc ab34 073f
000000b0: c057 123f 5ca2 92bf 6e07 4bbd 90c0 4ec0
000000c0: 8321 a3be 6591 3a3f d2f3 763f c4a8 08bf
000000d0: 5370 a63f 643c b2bf 20c2 63be ee78 62bf
000000e0: 786b 203f f17f 5d3f f7c0 bd39 2117 b33f
000000f0: a649 e73d 4c6b 0b3e cac3 62be 1d8e 01bf
00000100: a4e1 963e 24fd 683f bb0f 83be b491 5dbd
00000110: 8c6c d1bf cdb3 03bf 1656 b33e 1d5f 843d
00000120: 6fc9 c3be db1b 8ebe 123d 923d b9df a4bd
00000130: f722 713e 0417 653c 62b8 90bf 7a3e b0be
00000140: 0ffb 9ebe 0e14 2abf 1165 e23f cecb a6bf
00000150: 15fa febd 560b 54bc 4322 2dbd d65c a3bf
00000160: 7aa3 8fbd 5e6d 93bf 60f6 2fbf 4fad b7be
00000170: 70ae 5f3f 3d91 c03f 6eaa 6b3e fee9 0740
00000180: 9dd0 cabd ff65 e5be 67eb e3be 46ad 583f
00000190: 784f 99bf 2f9e ecbe e82a 133e 5502 45be
000001a0: a93d d53e 4c8a 16bf 370d b9be 75e4 b5bf
000001b0: 0b0a 4f3f e81a 39c0 c113 b13e 20e5 bcbf
000001c0: 1330 9abd ce05 febe 541c d73e 96cf 213f
000001d0: 8f95 1bc0 8b0c 8abf 59a1 bcbf 7dae d23e
000001e0: 33f5 f6bf ba9f 063f 9573 583f dfb2 e1be
000001f0: 215d f23f 4ca9 443e abb8 5bbe 84d6 dabd
00000200: c0e3 313c 17d2 bdbe 644a a13d d8fd 9a3e
00000210: 5bb6 483c 5ec3 3dc0 7a89 b13f 12a7 2b3f
00000220: b2c9 c5b9 3793 c8be cba9 a93e e908 7ac0
00000230: 0239 5f3f a4a7 febf 298e d03d 8e80 ecbf
00000240: 0633 333d 1cc5 173f fd98 453f 6175 c7bf
00000250: d679 2cbe ff8e 21c0 3563 28bf d43c 583e
00000260: d0a9 e73e 3e00 84bf 1d79 acbf 6f19 453d
00000270: bb9d 07be 9614 a13e 4b47 f6bf fa3a d83d
00000280: a20d c1bf e697 3e3f 0e64 4cbf 1e3a 30be
00000290: 0716 af3c f9a6 97be a3de 273d df10 b93e
000002a0: 2dda 13bf 4822 4cbe fb7a efbf 6ea9 5abf
000002b0: 0d07 423f 6203 013f dedf 8bc0 3d8c 263f
000002c0: 9a2a a8be fc1f 9bbe bf3d c63e b7ac 0dc0
000002d0: 6411 0a3e 20a4 e3bc 9937 a4be 0b20 4abe
000002e0: bc45 8a3e 885e 8bbd dcd6 ebbc 4781 f63d
000002f0: 60f4 a9be 78f0 a6bd 4889 fb3d 9d2f 743e
00000300: 58ef 51c0 2213 843f 8a00 cd3f f022 66bf
00000310: e6d6 403f a498 96bf d26a 843f a9b3 49bf
00000320: 3b75 99c0 c488 88bf 8f69 533f a401 b9bf
00000330: 8640 ad3e bda5 32be 2d54 8c3f 0ee2 f03d
00000340: 94b3 6f3f a233 e93e 16c4 d0bf cfd7 25bf
00000350: 488d de3f 80ba 8d3e 4092 b43f 166d b43f
00000360: c1a3 bbbe 1078 77be 9bc8 85c0 53d3 4bbf
00000370: 7d63 bd3f dd2e 7dbf 153b 6cbf 7c09 c3bf
00000380: 3479 393f 2c9e a2be 62c2 c03e d450 9cbf
00000390: 7371 26be c1ed 193f 4e38 8a3f dd83 99bf
000003a0: c1c5 ebbe 2b97 58bf b1ef c03f a593 a53c
000003b0: 633e a43d 330b c4bf 0482 8bbe 280f c1bf
000003c0: ee72 7dbe d477 8d3d 4277 73be 300e fdbc
000003d0: 5ce9 523e 9af2 1fbe 4158 3d3d 63c5 10c0
000003e0: 970b 8f3f 09e9 5f3a 8bbd 73bf 3c84 943e
000003f0: eb54 27bf 2332 52c0 c483 b1c1 0603 25bf
0.56930965 0.105614625 -0.22402942 -0.72285175 1.7986019 -0.5233314 -0.35952383 -0.92478424
-0.086496055 1.2452238 -2.0692747 0.54752094 -0.08873258 0.92454547 1.682893 -2.1016004
0.48518518 -1.5449274 0.060850956 -0.11979956 0.24783576 -0.2348602 -0.13749231 0.058377218
0.31609398 0.98720115 0.5998592 -1.6800222 0.67762697 -1.2438629 -1.9248846 0.16479348
0.2299036 0.1604681 -1.2720214 -0.16193284 0.03627789 -0.17186655 -0.12839082 -0.18084902
0.004520178 -0.23084618 -0.015604774 0.5281474 0.57165146 -1.1455798 -0.049567632 -3.230503
-0.31861505 0.72878104 0.9646579 -0.53382516 1.3003029 -1.392468 -0.22242022 -0.88465774
0.62663984 0.8652335 0.0003619266 1.3991433 0.11293344 0.1361515 -0.22145 -0.5060747
0.29469025 0.9101126 -0.2559794 -0.05409403 -1.6361251 -0.5144623 0.35026616 0.06463454
-0.3823962 -0.27755627 0.071405545 -0.08050484 0.23548494 0.013982538 -1.1306269 -0.34422666
-0.31050918 -0.6643685 1.7687093 -1.3030946 -0.12450043 -0.012942156 -0.042269003 -1.2762706
-0.070136026 -1.1517751 -0.68735313 -0.3587441 0.87375546 1.5044323 0.23014233 2.1236567
-0.09903071 -0.4480438 -0.44515535 0.84639394 -1.1977377 -0.46214435 0.14371836 -0.19239171
0.41648605 -0.58804774 -0.36142895 -1.4210345 0.808747 -2.8922672 0.34585384 -1.4757423
-0.07528701 -0.49613804 0.420138 0.63207376 -2.4310033 -1.0785078 -1.4736739 0.4114875
-1.9293579 0.52587473 0.84551364 -0.4408178 1.8934671 0.19205207 -0.21457164 -0.10685447
0.0108575225 -0.37074348 0.07875517 0.30271792 0.012250508 -2.9650493 1.387008 0.67051804
-0.00037725043 -0.39174816 0.33137354 -3.9067938 0.8719636 -1.989491 0.10183365 -1.8476732
0.04374983 0.5928514 0.77186567 -1.5582696 -0.16843352 -2.5243528 -0.6577638 0.21116954
0.45246744 -1.0312574 -1.3474461 0.04811996 -0.13243763 0.31461018 -1.9240507 0.10558124
-1.5082285 0.7445053 -0.7984017 -0.1720967 0.021372808 -0.29619578 0.040983807 0.36145684
-0.57754785 -0.19934952 -1.8709406 -0.8541478 0.7579201 0.50395787 -4.3710775 0.65057737
-0.32845002 -0.3029784 0.38718984 -2.2136667 0.13483196 -0.027788222 -0.32073668 -0.19738786
0.27006328 -0.0680514 -0.028788976 0.120363764 -0.33194256 -0.081513345 0.12282044 0.23846288
-3.2802334 1.0318339 1.601579 -0.8989706 0.7532791 -1.1765332 1.0345099 -0.78789765
-4.7955604 -1.0666738 0.82582945 -1.4453626 0.3383829 -0.17446037 1.0963188 0.117618665
0.9363339 0.45547205 -1.6309841 -0.6478242 1.7386866 0.2768135 1.4107132 1.409579
-0.36648372 -0.24166894 -4.180738 -0.7961933 1.4795986 -0.9889963 -0.9227765 -1.5237269
0.72450566 -0.317613 0.37648302 -1.2212167 -0.16254215 0.6012841 1.0798433 -1.1993366
-0.46049312 -0.84605664 1.5073148 0.020212004 0.08019712 -1.5315918 -0.27247632 -1.508275
-0.24750873 0.06907621 -0.23775962 -0.030890554 0.20596832 -0.15619889 0.046226744 -2.2620475
1.1175412 0.00085415 -0.95211095 0.29007137 -0.6536395 -3.28431 -22.189339 -0.6445774

model.0.bias f4 [128]
00000000: f6e1 22bf f258 47bf e320 96be e628 edbe
00000010: a0a2 3bbd 206a c2be fc43 b1be a8bf 473e
00000020: aae7 ac3e 0f13 64bf f63a b8be fb75 c1be
00000030: 1366 93be 96e1 25bf 8f6e 1c3f e200 a6be
00000040: 8312 5c3f ffe5 393e 0640 7cbd a1a3 7f3f
00000050: b2fc 4a3e 1e47 c0be 3185 8fbf 89cb 1d3f
00000060: 38a3 ce3d f779 93be 967f 8c3f ad95 fabd
00000070: 06b9 22bf 6110 643f e0aa 8ebe 9bda 4abe
00000080: 7071 333f 3fdb 81be f5ff 42bf 7f2d acbe
00000090: d0bc 60bf d0a7 61bf f10a cebe af8d f4be
000000a0: e559 c8be 17a6 a4bf 2212 d2be 21b4 96bf
000000b0: 4bb4 92be 8478 59be 385d f9be 961f 2ebe
000000c0: 01de 80bf 3b4b c7be 7188 a7be a970 35bf
000000d0: ec4d 873e b455 053f d5b3 583e e462 35bf
000000e0: 90e3 83bd e62d 2ebe d02b 4ebf d271 c7be
000000f0: 02be de3e 821f 763e 6d6c a43e 2468 933e
00000100: 7305 57bf 2c10 3b3e 4188 7cbe 0730 043f
00000110: 4862 3c3d 7f21 73be 3ee1 9b3e 5063 f83e
00000120: 1567 05bf 996d 643d f271 f8be ef7d 5d3e
00000130: 22a3 41bf 4853 a9bd 16e8 25be 7914 9fbe
00000140: 0cba c0be 10b3 1a3e dc8b ff3c b8ff 6cbe
00000150: 3afe db3e 3ca0 363f 9a8e 9dbe 4300 c7be
00000160: cdf2 12bf f255 403e 36c9 c1bc 5e96 303f
00000170: 696c 903d 765f 60be 6c07 003f 1edc db3c
00000180: 99a0 e53c 74ba 9dbe e8ac bbbe 25d1 823e
00000190: 87b3 703e 996d 393e 3433 bfbe 9b25 813e
000001a0: 7c04 bfbe 8e07 93be e751 a5be bce5 0a3e
000001b0: 26c4 37bf f3bb fa3e 7822 b13e 13ea 8ebe
000001c0: 7ce7 c4bd ca65 333f 5d51 313f 4e30 4a3e
000001d0: c8a4 f9bd 22de 2a3f 0116 e33e a794 bb3d
000001e0: ff5e 43bf 6491 84bf f66b fd3c d90c 8ebf
000001f0: 05b8 dfbe 86c9 753e 7e06 cdbe c13d 24be
-0.6362604 -0.77870095 -0.29321966 -0.46320266 -0.04580939 -0.37971592 -0.3462218 0.19506705
0.33770496 -0.8909158 -0.35982484 -0.37785324 -0.28788814 -0.6479734 0.611062 -0.3242255
0.85965747 0.18154143 -0.061584495 0.9985905 0.19822958 -0.37554258 -1.1212522 0.61638695
0.10089725 -0.2880399 1.0976436 -0.1223558 -0.63563573 0.8908749 -0.27864742 -0.19809954
0.70094967 -0.25362584 -0.7617181 -0.3362846 -0.87788105 -0.88146687 -0.40242723 -0.47764346
-0.39131084 -1.2863187 -0.4102946 -1.1773721 -0.28653178 -0.2123738 -0.48703933 -0.17004237
-1.006775 -0.38924584 -0.32721284 -0.7087503 0.26426637 0.520839 0.2116235 -0.7085402
-0.064398885 -0.17009696 -0.805356 -0.38954026 0.4350434 0.24035457 0.32113972 0.2879039
-0.8399269 0.18267888 -0.24661352 0.51635784 0.045992166 -0.23743246 0.30445284 0.4851327
-0.52110416 0.055768583 -0.48524433 0.21630071 -0.75639546 -0.08267838 -0.16201815 -0.31070307
-0.37641943 0.1510737 0.03119462 -0.23144424 0.42967397 0.7133825 -0.3077286 -0.38867387
-0.57401735 0.18782786 -0.023655515 0.6897944 0.070519276 -0.21911415 0.50011325 0.026838358
0.02803068 -0.30806315 -0.36655354 0.2555019 0.23505984 0.18108214 -0.37343752 0.25224003
-0.3730811 -0.287167 -0.3228905 0.13564199 -0.71783674 0.4897152 0.3459661 -0.2791296
-0.09614465 0.7007719 0.69264776 0.1974499 -0.12189633 0.667452 0.44352725 0.091592126
-0.7631683 -1.035687 0.030935269 -1.1097671 -0.43695083 0.24002656 -0.40044016 -0.16039182

model.2.weight f4 [128, 128]
00000000: 0bf2 13be 7885 09be f3b4 2bbe 1bb8 35be
00000010: bfc1 1ebd f550 f3bd 78f6 cb3c c57b 93bd
00000020: 7174 933c af60 3ebc d69e bbbb e02c 143d
00000030: be65 01bd aa86 d6bd a221 0bbe f697 483d
00000040: c073 2cbe fca7 d63c b0fb 77bc 022a 43be
00000050: 7ae4 8a3d 0d3e b0bd fb84 34be 74c7 1cbe
00000060: 96b7 773d c98d c3bd 6380 83be af96 59be
00000070: 145e 03be 1ed6 7dbd 78ae 54bd 10e8 c73c
00000080: 2002 5fbd dd32 1d3d 7835 58be 3beb 6cbe
00000090: bc23 ec39 7692 06be 8e70 3abc 5185 8a3d
000000a0: 58e0 123d 47b4 69be 4087 c5be 03f4 96be
000000b0: 78d7 113d a81c 08be 00da d9bd 9e30 02be
000000c0: 64ac ddbd cd79 5cbd 9a63 e5bd 3575 19bd
000000d0: 18b3 66bd b0c0 2bbe a7f3 9abe 8ff5 a63c
000000e0: b1c9 9bbe 0194 dcbd e372 70bc f02b 00be
000000f0: 161a a3bd fa20 efbd 3ff8 10be c8bd 01bf
00000100: 1b99 313d 17c0 b8bd d3f4 ddbd 498f 083d
00000110: f1e9 df3d f3ef e4bb 1ea0 49be 4889 46bb
00000120: fc81 56bc 45c6 77be ab3f 08bd 71a4 5c3e
00000130: 4f80 0e3a ed78 d6bd 2bf3 64bd 42da 1fbd
00000140: b6f4 25bd 9cdc 18be c859 10be d299 18be
00000150: b2f0 99bd 55df afbc 2e42 543d 2912 553c
00000160: b099 783c 4411 36be 00fb 12bf 1321 80bd
00000170: 2439 f1bd 1db7 06be 0a1e 0d3d b06b 293e
00000180: 2071 e53c cb14 c53a 3d72 93bd 7736 ecbd
00000190: 9ae1 29be 990a b6bd b0e4 88bd 340c ecbd
000001a0: 9671 373d 8475 1ebe 9822 41bc 6a41 ebbc
000001b0: 6576 12be 9927 0dbe fe14 ebbd 8808 713c
000001c0: 9f47 b3bb 86ae ccbe 957a e7bd b621 1fbe
000001d0: 4af2 b4bd 68f9 0ebf 40ff 3ebd 8d10 d9bd
000001e0: 8e39 853c 2d61 9f3d 9b3c 23be afd8 dc3d
000001f0: 5e86 0cbe 0dc4 e4be 6c31 c5bd 470f c9bd
00000200: 338e 8abb 015e 53bd 3dfd 51bd 69f6 4bbc
00000210: c283 4bbd 0667 8dbd f22f 663d 290e 8a3c
00000220: 25c1 053d fe9c 36bd 44c9 45bd 247d 91bc
00000230: 009c 87ba cf00 7b3c 8ef6 74bd b055 a6bb
00000240: 5758 87bd babd a4bd 9f26 b5bb 375e 45be
00000250: e2a6 bebc e256 013d 01ed bbbd 2652 22bc
00000260: 9004 853c 64a1 dcbd cb6b a2bd df23 9939
00000270: 298a 15bd 03f8 95bd cef1 a9bd 1017 8abd
00000280: c176 aebd fbfb ebbd 435a 57bb 6efa 3dbd
00000290: 33c4 4fbc 7bf8 0ebc c4f0 e8bd 558d 8cbd
000002a0: 8040 2d3a c082 e2bd 120e 2f3d 3992 373d
000002b0: 82f5 6e3d eb24 7cbc 3101 e73c bb6f 7abd
000002c0: 2c60 14bd 09a9 f33c dc49 2dbd c7b6 4bbd
000002d0: 0966 6fbd 7259 bebc 9d5f f03c 4fed 783a
000002e0: 9112 e5bc 92f9 1a3d 3194 8b3d a5cf a23d
000002f0: 9197 4abd 6e5a 093c 7a2c 9cbd 5359 f7bc
00000300: 9cce 15bd 7ba9 153d bf72 d8bd 15ba 85bd
00000310: c844 30bd abb5 eb3c 218e 90bd 4fd0 a8bd
00000320: c194 44bc b24f 24be dba5 833d 750b 8f3c
00000330: f299 7d3c 1103 c83b b6d4 16be 5e26 743d
00000340: 9ab4 183d a94a 283d e4db 573d 9228 28be
00000350: 4ce8 bf3c f718 12be fa4b 563d 04d2 2bbd
00000360: 9573 13be 8bbe 06be f068 9e3c df26 dd3c
00000370: 3193 58bd 30da 773d 9ee0 a9bc 8484 a2bc
00000380: 4a84 17be 1214 2a3d 9d1e 863d a5c4 f03b
00000390: e26b 003d b618 c0bc bff4 333c eef0 89bd
000003a0: 1561 b1bd 128d ac3b 9719 9a3d c4bb 9abc
000003b0: b501 f1bc bd03 11be d618 39be b3fb a63d
000003c0: ad02 3a3c 692a e93b 3c19 38bd 1154 91bd
000003d0: f579 913a 3262 083d b301 9d3d 2a77 1dbd
000003e0: 3c90 ccbd ff02 943d 7ba5 9bbd 3bdc ca3c
000003f0: d50c f3bd 892d ed3b b26e 483d 12ca c6bd
-0.14447801 -0.1342982 -0.16768245 -0.17746012 -0.03875899 -0.11880676 0.024897799 -0.072013415
0.01799986 -0.011619731 -0.005725722 0.03617561 -0.03159117 -0.10474904 -0.13587049 0.048973046
-0.1684103 0.026203148 -0.015135691 -0.19058993 0.0678186 -0.08605585 -0.17628853 -0.1531046
0.060477816 -0.09548528 -0.2568389 -0.21248887 -0.12828857 -0.061971776 -0.0519242 0.024402648
-0.054445386 0.038378585 -0.21114147 -0.23136608 0.00045040052 -0.13141808 -0.011379374 0.06763709
0.035858482 -0.22822677 -0.3857975 -0.2948304 0.035605878 -0.13292181 -0.10637283 -0.12713858
-0.108238965 -0.053827096 -0.11200638 -0.037465293 -0.05632314 -0.16772723 -0.30264017 0.020380763
-0.30427316 -0.10770417 -0.014675829 -0.12516761 -0.0796396 -0.11676212 -0.14157198 -0.5068021
0.043358903 -0.09021013 -0.10837712 0.033339772 0.10933293 -0.006986612 -0.19689986 -0.0030294228
-0.013092514 -0.24196728 -0.033263844 0.21547104 0.00054359896 -0.104722835 -0.055895966 -0.039026506
-0.040516578 -0.14927906 -0.14096749 -0.14902428 -0.07516612 -0.021468798 0.051820926 0.013004818
0.015173361 -0.17780024 -0.57414246 -0.062563084 -0.11778477 -0.1315579 0.034452476 0.16544986
0.028008044 0.0015036104 -0.071995236 -0.11533826 -0.16589966 -0.0888874 -0.06684244 -0.11525765
0.04478606 -0.15474516 -0.011788033 -0.028717715 -0.14302976 -0.13784637 -0.11478613 0.014711507
-0.0054711844 -0.399769 -0.113026775 -0.15540203 -0.088352755 -0.55849314 -0.046630144 -0.1059886
0.016262796 0.07782207 -0.15941088 0.107835166 -0.13723132 -0.44680825 -0.09628567 -0.09817367
-0.0042283772 -0.05160332 -0.051266897 -0.0124488855 -0.0496862 -0.06904416 0.056198068 0.016852455
0.0326549 -0.044583313 -0.048287645 -0.017759867 -0.0010346174 0.015320017 -0.059805445 -0.0050761327
-0.06608646 -0.08044 -0.0055282856 -0.19274221 -0.023272935 0.031577 -0.09176064 -0.009907281
0.016237527 -0.1077297 -0.07930716 0.0002920916 -0.036508713 -0.07322695 -0.08298074 -0.0674268
-0.08518744 -0.11522671 -0.0032860197 -0.046381406 -0.012681055 -0.008726235 -0.113740474 -0.068628944
0.00066090375 -0.11060095 0.042738028 0.044817183 0.058339603 -0.015389661 0.02819881 -0.06114171
-0.03622453 0.029743688 -0.042306766 -0.049734857 -0.058446918 -0.02323601 0.029342467 0.0009495811
-0.027962955 0.037835665 0.06815375 0.07949761 -0.04946095 0.0083833765 -0.07625671 -0.03019396
-0.03657399 0.036538582 -0.10568761 -0.06529633 -0.043034345 0.02877315 -0.07058359 -0.08242857
-0.011998356 -0.16046026 0.06428119 0.017461518 0.015478598 0.006103881 -0.1472958 0.059606902
0.03728161 0.041086826 0.05269994 -0.16421726 0.023426197 -0.14267336 0.05231855 -0.041948333
-0.1439956 -0.13158624 0.019337147 0.026996074 -0.052874748 0.060510814 -0.020736989 -0.019838579
-0.14796558 0.041523047 0.06548808 0.0073476606 0.031352885 -0.023449283 0.010983645 -0.06735407
-0.08661095 0.0052658403 0.07524412 -0.018888362 -0.02941976 -0.14161582 -0.1807588 0.081534766
0.011353177 0.0071156514 -0.04494594 -0.070961125 0.0011098968 0.03329677 0.0766634 -0.03844372
-0.09988448 0.07227134 -0.07599922 0.024763217 -0.11867682 0.007238094 0.048933692 -0.097065106

model.2.bias f4 [128]
00000000: c2aa 1ebe 8632 00bd 0908 09bf 4953 7fbe
00000010: 6159 dfbd 5edf 88bd e8c4 163e 972c 14be
00000020: ff49 89be e758 e8bd d98b d6bd 4214 babd
00000030: a773 4ebe 31e1 fcbd d0b0 8cbd d304 b0bd
00000040: 69fe 54bd ee59 3abf 8053 0e3e 05b7 083b
00000050: 6627 a7be 920f 72bd b3e0 113f d120 96bd
00000060: 2b92 c8bd a5d7 46bc 7799 ecbc b6f0 a1bd
00000070: db2f 83be 176a b9bd 737f e6bd 5858 e83c
00000080: c080 3f3e 9c01 803e 1cbe 6a3e d1fc 23be
00000090: 8452 c6bc 0c73 efbd d8da 223d fe9b 00be
000000a0: 925d 23be 33a4 0fbe 5447 0e3f 35a8 0cbe
000000b0: c12d d3bd 6318 ab3e 792a 093e a4b0 b6bd
000000c0: 19fe bcbe ff66 53bf 52ac e7bd fa49 11be
000000d0: 3005 a3bd 9ff4 55be 03e1 c7bd 21c4 bbbd
000000e0: 1e1e 04bf d70f 003f 4866 72bf 5f9e a9be
000000f0: ab7b 93bd c2ef c1bc b529 68bd f007 d6bd
00000100: 9c55 58be 0bec 48be 630b 97be cf50 eabd
00000110: e95b bdbd 910b 96bd f075 133f 19dc 33be
00000120: 2f2e e2bc 40b2 04bf b725 07be 8290 773e
00000130: 789e 1f3f 474b 06be bd6a b1bd 8335 e5be
00000140: ab9a 233d 9a10 cbbe 1025 f23d aa05 09be
00000150: 165d 36bc 0cc3 aabc 677b 18be 9bc3 d5bd
00000160: 44d3 f1bd b4a9 913e 25e1 32bd 50e6 85bd
00000170: 3ae4 a1bd 52f7 1dbe c280 1ebe d5ba 86bd
00000180: f593 c1bd 9d2c 58be 7b34 cbbd 7cda c2bd
00000190: 2463 a2be 70fa 853e 457c 04be 40de fabe
000001a0: 140f e9bd dc1f fc3e 03d7 473e 43f4 983e
000001b0: cb0a c2be 2be7 28be 1b7f 8bbe bb09 dfbe
000001c0: e5f8 78bd 6f8c 0dbe ea39 d5bd b677 5b3e
000001d0: 2fd4 c2bd b701 5b3d 2c7b aabd a2b7 d8be
000001e0: 2361 713c 69f2 c0bd 44f1 1dbe a1de e63c
000001f0: 5850 e3bd f5af 80bf bdb9 3dbe bb2e f4bd
-0.15494826 -0.031298183 -0.53527886 -0.24934115 -0.109057195 -0.06683229 0.14723551 -0.14470135
-0.26814267 -0.11345082 -0.104758926 -0.09085895 -0.20161305 -0.12347639 -0.06869662 -0.0859467
-0.052000437 -0.7279347 0.1389904 0.0020861041 -0.32647246 -0.05909688 0.5698349 -0.07330478
-0.09793504 -0.012136375 -0.028881771 -0.0790724 -0.25622448 -0.09053438 -0.11254778 0.028362438
0.18701458 0.25001228 0.22924083 -0.1601441 -0.024209268 -0.11691865 0.039759487 -0.12559506
-0.15953663 -0.14027481 0.5557759 -0.13736041 -0.10311461 0.33417043 0.13395108 -0.0892041
-0.3691261 -0.82579035 -0.11312164 -0.14188376 -0.07959974 -0.20894097 -0.097597145 -0.09168268
-0.51608455 0.5002417 -0.9468732 -0.3312864 -0.07201322 -0.023673896 -0.0566804 -0.10450733
-0.21126407 -0.19621293 -0.29500875 -0.11441194 -0.09246046 -0.07326425 0.57601833 -0.1756443
-0.027609913 -0.5183449 -0.13197981 0.24176219 0.6235118 -0.13114654 -0.08662937 -0.4476739
0.039942425 -0.39661103 0.11823475 -0.13381067 -0.011130592 -0.020844959 -0.14890824 -0.104376994
-0.11807874 0.28449786 -0.043671746 -0.06538069 -0.07904859 -0.15426376 -0.15478805 -0.06578604
-0.09452049 -0.21110769 -0.09922119 -0.09514329 -0.31716263 0.2616763 -0.1293803 -0.48997688
-0.11379829 0.49243057 0.19515614 0.29873857 -0.3789886 -0.16494434 -0.2724541 -0.4356211
-0.06078424 -0.13823102 -0.10411437 0.21432385 -0.09513127 0.053468432 -0.083242744 -0.423276
0.014732632 -0.09421236 -0.15424067 0.02818233 -0.11099309 -1.0053698 -0.18527885 -0.11922976

model.4.weight f4 [3, 128]
00000000: 1bde c73c e9ab 893d b799 4e3f 59eb 86bd
00000010: b303 db3f 00f8 c439 11ec 303f e13c 4ebd
00000020: 5182 e93e d663 cb3f bcf9 9939 37d9 26bd
00000030: e9a4 853d 662b 01bc 3520 7e3d 75fe 07bd
00000040: d9c8 d4bc 7ae1 2c40 7fb2 d93f a987 2a40
00000050: 285e 383e 1504 193d a122 d0be d323 64bd
00000060: 62ef bdbb 4626 1dbc 15d0 f9bc 1223 9ebd
00000070: ee1a ef3f e431 00be c183 1b3d df5a 193f
00000080: 7092 2f40 f8f7 0040 940e c53f ed77 84bb
00000090: 43db bb3c 28b5 b73c 8a05 07bf d16e 0a3b
000000a0: 3f7f 3e3e 04ca 0f3d e615 84bf dc6c 353e
000000b0: 2f1d 373f bf8f 0d40 feaa 103f 0420 1cbd
000000c0: 8a9f f7bf a984 10c0 fa52 6e3d 60ea 68bc
000000d0: db63 053d 938e 04bb 0ce7 22bd 1dda 6e3b
000000e0: 73b7 a63f 98af 23bf 009e 87bf df3a 87bf
000000f0: 8afe b83d b53d 8e3d 5e45 e0bf 94b4 643d
00000100: dd67 093f 4011 43bf d7f1 e93f 9872 be3d
00000110: f17c 73bd c638 16bd 8c83 68bf 9401 673e
00000120: c1d3 863d b7d0 1240 bdf4 d93b be41 0ac0
00000130: 75b4 25c0 67a3 3a3e 9ef0 51bc e75c 28c0
00000140: 50f3 423f d3fd 0a40 7a4d a43f 6cd9 0e40
00000150: c85f b83f 0957 db3c 5c2c 0fbe df9b 4340
00000160: 139b 24bb 59cc 933f 1d48 6bbd 805d 933a
00000170: 9e94 403f b950 dcbc 6618 363d c6b0 b3bc
00000180: 362c d2bc a865 2a40 fe00 85bd 3d5d fe39
00000190: a452 0940 6fe0 8b3f 2c13 d43c 84db 1b40
000001a0: 735a 8c3c 3052 673f 54f5 e2bf 2773 933f
000001b0: 8e20 853f 578a e83a b858 773f 5a20 8b3f
000001c0: 232c aabc d9b6 923f 8773 c33c c6c2 c83f
000001d0: 1653 4dbd 9547 023f 0f87 10bd a3e1 cf3e
000001e0: 8ffc c33f 13ca 87bd d63c 33bd 2577 c0bf
000001f0: ecab d9bc af5f b3bf 4e66 3f3a 3171 59bc
00000200: b362 183d ac97 0cbd a916 533f e0b1 073e
00000210: fdac e63f 98f6 0e3c 631b 393f 8c7e 953c
00000220: 62c3 c43d e06f e83f 9d67 42bd c01e 9bba
00000230: ef6a ed3b 7d06 623c 453a 913c 32dd ffbc
00000240: b7a2 083c 5faf 2740 a5f5 f23f 0efe 4140
00000250: 7096 3b3e ddca 93bc 7d80 d3be d92b 92bc
00000260: a0a8 9b3d f0b1 8abd 9644 9d3d 0a39 08bd
00000270: 223a 0b40 177a d7bc 1d49 1d3e 2c02 183f
00000280: 4a67 2240 194b 0e40 6030 ba3f 63b5 49bd
00000290: 534d 18bd 688e 8ebd 7988 f63c 3c68 58bc
000002a0: 06be 953c 03a0 59bd 5b10 6ebf 2822 113d
000002b0: 8a9e 173f 487a 0f40 8f5e 0e3f d8e4 43bc
000002c0: ee84 02c0 7343 e4bf ff81 203d b8b6 9fbd
000002d0: 26e9 df3c e518 25be 8921 b73c 3b16 bd3c
000002e0: 4676 9e3f 8188 1dbf a0c1 9abe 64e1 9abf
000002f0: bbfd 34bc 56c8 86bc d123 d8bf b2b1 5a3d
00000300: 88f9 aa3e c019 3cbf 459e dd3f ae90 adbb
00000310: 5e1b 0e3b 5ee1 313c 562f 61bf 1e9b b5bc
00000320: b02c 7fbc 0244 1040 0f48 8a3c fd40 09c0
00000330: e65a 21c0 40a5 973e fd71 a0bd db3c 2ec0
00000340: 853a 3d3f 9c87 0d40 b095 883f 9af2 0a40
00000350: d44e bc3f a17b 4dba 7d8e 50be eff4 2f40
00000360: b7ee 91bc f386 823f 0e0f 85bc 3b4d 2a3d
00000370: 27d7 3e3f 3f2b 413d d540 803c 236a cb3b
00000380: d73e 20bd 4097 2c40 1080 b7bc 4267 46bd
00000390: 7c57 0f40 bbe7 8d3f 15d8 5d3b 3255 f33f
000003a0: 1658 cfbb b1d2 733f 371d f1bf 88cd a93f
000003b0: 7792 0d3f bd0f 9bba be6b 693f 3cd6 b53f
000003c0: b543 cb3c 9ad2 903f 4c24 85bd db2c c43f
000003d0: 9fe4 ffbd 8ac9 fb3e 207c 203c b7a1 3d3f
000003e0: 582c c63f 901c ab3c 64ed a6bc 9fe0 a4bf
000003f0: f8d0 77bc 9958 adbf 0731 7dbc 6027 9e3d
0.0243979 0.067222424 0.807033 -0.06587858 1.7110504 0.00037568808 0.6911021 -0.050351027
0.45607236 1.5889843 0.000293685 -0.040734496 0.06525595 -0.007883882 0.062042434 -0.033201654
-0.025974678 2.701262 1.7007598 2.66453 0.18004668 0.03735741 -0.4065142 -0.055698227
-0.005796359 -0.009591645 -0.030494729 -0.07721533 1.8680093 -0.12519032 0.037967447 0.59904283
2.7433128 2.0151348 1.5395074 -0.0040426166 0.0229317 0.02242525 -0.52742827 0.002112318
0.18603228 0.035104766 -1.0319183 0.17717308 0.71528906 2.2118986 0.56510913 -0.03811647
-1.9345562 -2.258097 0.0581846 -0.014216036 0.032565933 -0.0020226582 -0.039771125 0.0036445924
1.3024734 -0.6393981 -1.0595093 -1.0564841 0.090329245 0.069453634 -1.7521169 0.055836275
0.5367411 -0.76198196 1.8276929 0.09299201 -0.059445325 -0.036675237 -0.90825725 0.22559196
0.065833576 2.293989 0.0066514895 -2.1602626 -2.5891392 0.18226396 -0.012813715 -2.6306703
0.76152515 2.1717422 1.2836144 2.2320204 1.440423 0.0267749 -0.13981766 3.0563886
-0.0025116845 1.1546737 -0.05744182 0.0011243075 0.7522677 -0.02689396 0.044456862 -0.021934878
-0.025655847 2.6624546 -0.0649433 0.00048516123 2.145669 1.0927867 0.025888048 2.4352732
0.017132973 0.90359783 -1.7731118 1.1519517 1.040056 0.0017741424 0.9661975 1.0869248
-0.020773 1.1462051 0.023858799 1.568444 -0.050128065 0.50890476 -0.035285052 0.40601835
1.531145 -0.066303395 -0.04375919 -1.503636 -0.026571237 -1.4013575 0.00073013164 -0.013271616
0.037203502 -0.034324333 0.8245645 0.13251448 1.8021542 0.008725785 0.72307414 0.018248819
0.09607579 1.8159142 -0.047462095 -0.0011834726 0.0072454135 0.013795492 0.01772798 -0.031233404
0.0083395755 2.6200788 1.8981215 3.0311313 0.18319106 -0.018041069 -0.41308966 -0.017843174
0.07600522 -0.0677222 0.07679097 -0.03325752 2.1754231 -0.026303334 0.15359922 0.59378314
2.5375543 2.2233336 1.4546013 -0.04924525 -0.037183117 -0.069607556 0.030094372 -0.013208445
0.018279087 -0.053131115 -0.92993706 0.035432965 0.59226286 2.2418385 0.55613035 -0.011956416
-2.0393634 -1.7833084 0.039186474 -0.07798523 0.027332854 -0.16122778 0.022354858 0.02308189
1.2379844 -0.61536413 -0.3022585 -1.2100034 -0.011046822 -0.01645295 -1.688593 0.05339212
0.33393502 -0.7347679 1.7313925 -0.005296788 0.0021683793 0.010856954 -0.87962854 -0.022168692
-0.015574619 2.2541509 0.016880063 -2.1445916 -2.521173 0.29618263 -0.078342415 -2.7224643
0.7391742 2.211402 1.0670681 2.1710572 1.4711556 -0.00078385515 -0.20366855 2.7493246
-0.017814023 1.0197433 -0.01624253 0.04157756 0.74547046 0.047160383 0.015655914 0.006207721
-0.03912243 2.6967316 -0.022399932 -0.048438318 2.2397146 1.1086344 0.0033850719 1.9010375
-0.0063276393 0.95243365 -1.8837041 1.3265848 0.5530161 -0.0011830252 0.91180027 1.4206004
0.024812559 1.131427 -0.06501064 1.5326189 -0.12494778 0.491772 0.009795219 0.7407488
1.5482283 0.020887643 -0.020376869 -1.2881049 -0.015125506 -1.3542663 -0.015453584 0.07722354

model.4.bias f4 [3]
00000000: bac6 633f 7a59 6d3f f694 6a3f
0.8897511 0.92714655 0.91633546
