right_agent.pth (torch, 73904 bytes, 6 tensors)

model.0.weight f4 [128, 6]
0	0x3d797a97	0.060907926
1	0xbce14dea	-0.027502973
2	0x3eb936a4	0.361745
3	0xbe8d99c5	-0.2765638
4	0x3e809265	0.2511169
5	0x3c5d0cb1	0.013491795
6	0xbde87d0c	-0.11351976
7	0xbd690b8f	-0.05689579
8	0xbe93fb38	-0.28902602
9	0xbe94fc03	-0.2909852
10	0xbe652d42	-0.22380546
11	0x3e9a7002	0.3016358
12	0xbed7cda4	-0.4214908
13	0xbeaa6c4c	-0.3328575
14	0xbe83f2c4	-0.25771153
15	0x3dda9930	0.106737494
16	0xbe279b48	-0.16367829
17	0x3c58eda7	0.0132402545
18	0x3e726a84	0.23673445
19	0xbd65dcaa	-0.056118645
20	0xbe34f239	-0.17670526
21	0xbe224f2c	-0.15850514
22	0xbc32fe66	-0.010924911
23	0x3e533555	0.20625813
24	0x3edeeaa3	0.4353839
25	0x3ee39e3c	0.4445666
26	0xbeba6026	-0.3640148
27	0x3d9a7ee0	0.07543731
28	0xbec7565c	-0.38933074
29	0x3ec5bf74	0.3862263
30	0xbe3e87b2	-0.18606451
31	0xbe466346	-0.19373807
32	0xbd9be441	-0.07611895
33	0x3de3d341	0.11124278
34	0xbf6cb319	-0.9246078
35	0x3ee2fbee	0.44332832
36	0xbeae58c1	-0.3405209
37	0xbbde2b58	-0.0067800693
38	0xbef2b211	-0.4740148
39	0x3b9a259e	0.0047041913
40	0x3ddef81b	0.10887166
41	0x3e782e4e	0.24236414
42	0x3f116456	0.56793725
43	0xbd92089f	-0.071305506
44	0xbe0e0cc1	-0.13872053
45	0x3edf1b7e	0.43575662
46	0xbe947311	-0.2899404
47	0xbe0498da	-0.12948933
48	0x3eb21baf	0.34786746
49	0xbdd94972	-0.10609712
50	0x3cadfe9f	0.021239577
51	0x3d8b05ca	0.067882136
52	0x3f164b85	0.58708984
53	0x3e871ab7	0.2638757
54	0x3cd89638	0.026438817
55	0x3d6f4ad8	0.058420986
56	0xbdfd04d2	-0.12354435
57	0xbee5a7f9	-0.44854715
58	0xbe34e134	-0.17664033
59	0xbe34f97f	-0.176733
60	0x3ed36686	0.41289157
61	0x3e11a787	0.14224063
62	0xbe2ab0be	-0.16668984
63	0xbe294548	-0.16530335
64	0xbeaeb532	-0.34122616
65	0x3f0edfd5	0.5581029
66	0xbc592b97	-0.013255022
67	0xbe542eef	-0.20721029
68	0xbe0c00cc	-0.13672179
69	0x3de9c2af	0.11414086
70	0xbded140e	-0.11576091
71	0xbe90cf2d	-0.28283063
72	0x3e48c30d	0.19605656
73	0x3dbf9dd5	0.09356276
74	0xbefaf4c2	-0.4901486
75	0x3ef36711	0.4753957
76	0xbe020a6a	-0.12699285
77	0x3e36a789	0.17837347
78	0xbee49cf4	-0.44650996
79	0x3ebb014e	0.36524433
80	0xbe97db49	-0.2965949
81	0xbe916c9a	-0.2840317
82	0x3f37c353	0.71782416
83	0xbed2ec31	-0.41195825
84	0xbdcc95e2	-0.099895254
85	0x3e1c7d60	0.15282202
86	0xbe62d7b9	-0.22152604
87	0xbd2a3282	-0.041552074
88	0xbf0f0bf6	-0.55877626
89	0x3d863850	0.065537095
90	0x3ecf2cad	0.40463772
91	0x3e5f7a61	0.21824028
92	0xbf0e56e7	-0.5560135
93	0xbecccbfe	-0.39999384
94	0xbf114d03	-0.56758136
95	0xbe78688e	-0.24258634
96	0xbfdd9d91	-1.731371
97	0xbd42f5b6	-0.04759761
98	0x3e02bb8c	0.12766856
99	0xbe6e9a87	-0.23301135
100	0xbeb01d71	-0.34397462
101	0xbeb4215e	-0.35181707
102	0xbfa56828	-1.2922411
103	0x3d057f5a	0.032592155
104	0xbebe8d22	-0.3721705
105	0x3e9181cc	0.2841934
106	0xbd189257	-0.037248936
107	0xbe0b8081	-0.13623239
108	0x3da1cc4c	0.07900295
109	0xbf14e79a	-0.58165896
110	0xbe1ded4f	-0.15422557
111	0x3e95b803	0.29241952
112	0x3e8a7bfa	0.27047712
113	0x3e83c0f6	0.25733155
114	0xbd886cf4	-0.06661406
115	0x3e6c5644	0.23079783
116	0xbe8eb83f	-0.27874944
117	0xbe5539f0	-0.20822883
118	0x3e2f65f0	0.1712873
119	0x3dd0a770	0.10188186
120	0x3d9535fe	0.07285689
121	0x3eb02f56	0.34411114
122	0xbe31b91a	-0.17355767
123	0xbeea9fb0	-0.45824957
124	0xbf00eca9	-0.50361115
125	0xbed3ddca	-0.4138015
126	0xbda69c85	-0.081353225
127	0x3c8c2457	0.017107172
128	0xbe67eb9d	-0.22648473
129	0xbeb0f277	-0.34559986
130	0xbc0a489f	-0.008440166
131	0xbee78842	-0.45221144
132	0xbdaeb990	-0.08531487
133	0xbe94a110	-0.2902913
134	0xbe0f1d13	-0.13975935
135	0x3d009b01	0.031397823
136	0x3f23f42b	0.64044446
137	0xbea42f79	-0.3206747
138	0xbeb9e1ac	-0.36304986
139	0xbe5b2c35	-0.21403582
140	0xbbdfd080	-0.006830275
141	0xbe43c1b4	-0.1911686
142	0xbebc1ba1	-0.3673983
143	0x3ebeb6a4	0.3724872
144	0x3dd870e0	0.10568404
145	0xbeb3d6c9	-0.35124806
146	0xbe720a1e	-0.23636672
147	0xbeca8be6	-0.3955986
148	0x3eaf08f4	0.34186518
149	0x3ea144d0	0.31497812
150	0x3e28a907	0.16470729
151	0xbe89754d	-0.26847306
152	0x3e3a619f	0.18201302
153	0xbf08f55b	-0.5349938
154	0x3df7dd1f	0.121027224
155	0xbd56d098	-0.052445024
156	0xbf6a6c65	-0.91571647
157	0x3ec65556	0.3873698
158	0x3cc70a0d	0.024296785
159	0x3dfb50ab	0.122712456
160	0xbeb22506	-0.34793872
161	0x3dfe16e7	0.12406712
162	0xbc404a93	-0.01173653
163	0xbea392e5	-0.3194801
164	0xbe4bb24d	-0.19892235
165	0xbd265598	-0.040608972
166	0x3ea4aab0	0.32161474
167	0x3d29cdfe	0.041456215
168	0x3ced873d	0.02899515
169	0xbe6bc388	-0.23023808
170	0xbdea7a80	-0.11449146
171	0x3eb2ae92	0.34898812
172	0x3e8084ce	0.25101322
173	0x3c1b9f79	0.00949847
174	0xbfe7553c	-1.8072886
175	0x3e155b2c	0.1458556
176	0x3d0036fc	0.031302437
177	0xbf020e9d	-0.5080355
178	0x3d5a1399	0.053241346
179	0x3eedf308	0.4647448
180	0x3f029aed	0.5101765
181	0x3ed65c43	0.41867265
182	0x3e943909	0.28949764
183	0x3d29285a	0.041298248
184	0x3efce766	0.49395293
185	0xbea947f2	-0.33062702
186	0x3dcd65af	0.1002916
187	0xbe1c0ecc	-0.1524002
188	0x3d5fd8a5	0.054649968
189	0x3eed01d4	0.46290457
190	0x3e74f260	0.23920584
191	0x3e7ca451	0.24672057
192	0x3e0662f3	0.13123684
193	0x3e9a8f0c	0.3018726
194	0x3f0ae344	0.5425303
195	0xbe51ed2b	-0.20500629
196	0xbce4d429	-0.027933197
197	0xbd42ddfe	-0.04757499
198	0xbe6063c1	-0.21913053
199	0x3d7ea42c	0.062168285
200	0x3df60849	0.12013299
201	0xbe643aa5	-0.22287996
202	0xbdb0db29	-0.086355515
203	0xbcf0a997	-0.029377742
204	0xbe8d05a1	-0.27543357
205	0x3e890e31	0.2676864
206	0xbe66c1e2	-0.22534898
207	0x3dd6c61f	0.10487007
208	0x3e76439e	0.24049231
209	0xbdcfddaf	-0.10149705
210	0x3e4d3fc7	0.2004386
211	0xbdf0bcdf	-0.11754774
212	0xbd16a1df	-0.036775466
213	0x3dd2aefe	0.10287283
214	0xbd627aad	-0.055292774
215	0xbd32179f	-0.043479558
216	0x3d88d599	0.066813655
217	0xbecd9f9e	-0.4016084
218	0x3e3f1472	0.18660143
219	0xbefac943	-0.48981676
220	0x3dc136e1	0.094342954
221	0xbec984e6	-0.39359206
222	0xbe24b6d5	-0.1608537
223	0xbcac3d40	-0.0210253
224	0x3d42bfd8	0.047546238
225	0x3c985460	0.01859492
226	0x3e2ef400	0.17085266
227	0x3db97c00	0.09056854
228	0x3eb51696	0.35368794
229	0x3d9670af	0.073457114
230	0x3eadd1aa	0.33949023
231	0xbe5c3cde	-0.21507594
232	0x3edb5ac1	0.42842677
233	0xbd82b35b	-0.063818656
234	0xbef9827b	-0.4873236
235	0xbe5e8bd0	-0.21733022
236	0xbe684c38	-0.22685325
237	0x3ea88515	0.32914034
238	0x3dc9c64c	0.09852275
239	0x3f42f99f	0.7616214
240	0x3d373b7a	0.044734456
241	0x3e8fd13d	0.28089324
242	0x3b390ea2	0.0028237482
243	0xbe33f356	-0.17573294
244	0x3e03d040	0.1287241
245	0x3ecd744f	0.401278
246	0xbd5c5f7f	-0.05380201
247	0xbf16e15a	-0.5893761
248	0x3ecb50ad	0.39709988
249	0x3e8469b1	0.25861886
250	0xbe2191b0	-0.15778232
251	0xbd591ce5	-0.05300607
252	0x3ee438d3	0.44574603
253	0xbd53412a	-0.051575817
254	0x3af13f81	0.0018405766
255	0x3e984a70	0.2974429

model.0.bias f4 [128]
0	0xbe2ec7ac	-0.17068356
1	0xbe205344	-0.15656763
2	0x3ded68f6	0.11592285
3	0x3ebb656f	0.36600825
4	0xbe3035a7	-0.17207967
5	0x3e8c2450	0.27371454
6	0x3e25ace0	0.16179228
7	0x3c852887	0.016254677
8	0x3d5c880e	0.05384069
9	0xbded98c5	-0.11601404
10	0x3e38172a	0.17977586
11	0xbe23876a	-0.15969625
12	0x3ef3dbb4	0.47628558
13	0x3e1715c1	0.14754392
14	0x3e195e8b	0.14977472
15	0x3e7c4a23	0.24637656
16	0x3da3d305	0.07999233
17	0x3da46826	0.08027677
18	0x3e38d24e	0.18048975
19	0xbebd4618	-0.3696754
20	0xbdca7e31	-0.0988735
21	0x3e86f1fa	0.26356488
22	0x3ea05e45	0.31321922
23	0xbe731d05	-0.23741539
24	0xbe12fb12	-0.14353588
25	0x3e032b2e	0.1280944
26	0xbeeb56b1	-0.45964578
27	0x3ee16746	0.44024104
28	0xbece7829	-0.4032605
29	0xbdba5f70	-0.091002345
30	0xbedb050d	-0.4277729
31	0xbea89670	-0.32927275
32	0xbf216acf	-0.630536
33	0xbe800466	-0.25003356
34	0x3daa34ce	0.08310853
35	0xbeb75534	-0.35807192
36	0x3d09c371	0.033633653
37	0xbe9e3f5c	-0.30907714
38	0xbe537014	-0.20648223
39	0x3e9b799e	0.30366224
40	0xbe8521a8	-0.2600224
41	0x3dd7adb2	0.105311766
42	0xbecf494d	-0.40485612
43	0xbe42244d	-0.1895916
44	0x3e83ac59	0.25717428
45	0xbe0a332e	-0.13496086
46	0xbeb3db23	-0.35128126
47	0x3eb0f448	0.34561372
48	0xbe76f6f8	-0.24117649
49	0x3e07531a	0.13215294
50	0xbe59a819	-0.2125553
51	0xbdbc1104	-0.09182933
52	0xbd22d36b	-0.039752405
53	0xbe5ebf22	-0.21752599
54	0xbe8420c1	-0.2580624
55	0xbe540130	-0.20703578
56	0xbe5dc089	-0.21655478
57	0xbe8039a7	-0.25043985
58	0xbe802d6b	-0.2503465
59	0xbe9288df	-0.2862005
60	0x3e53b5b9	0.2067479
61	0xbec7b4e4	-0.39005196
62	0x3e639b19	0.22227134
63	0x3edf5538	0.43619704
64	0x3d58f445	0.05296733
65	0xbedd0472	-0.43167454
66	0xbde2ef19	-0.110807605
67	0xbed13edd	-0.40868273
68	0x3dce6aed	0.10078988
69	0xbd9854e4	-0.074380666
70	0x3f129f9f	0.5727481
71	0x3da99e11	0.08282102
72	0xbec00b92	-0.37508827
73	0xbe820df8	-0.25401282
74	0xbeaed67e	-0.3414802
75	0xbe1aa948	-0.15103638
76	0xbe843dfc	-0.2582854
77	0x3ddfc0a6	0.10925417
78	0xbc4a97c9	-0.01236529
79	0xbd39fc37	-0.045406546
80	0xbe90b8e1	-0.2826605
81	0x3e72cc7d	0.23710819
82	0x3dcf43c7	0.101203494
83	0xbe74aaa7	-0.23893224
84	0x3ed78fe2	0.4210196
85	0xbe2c712c	-0.16840047
86	0x3e2c7965	0.16843183
87	0xbdb88a5e	-0.090107664
88	0xbeaea2ba	-0.34108526
89	0xbe290541	-0.1650591
90	0xbecdc7c8	-0.40191483
91	0xbe888036	-0.26660317
92	0x3e5e7cbf	0.21727274
93	0x3ebdefb5	0.37096944
94	0xbead3009	-0.3382571
95	0x3dba4a4d	0.09096203
96	0xbdcb6b73	-0.09932604
97	0x3e20daf8	0.1570853
98	0x3ea99369	0.33120278
99	0xbecf2d3a	-0.40464193
100	0xbe7551c8	-0.23956978
101	0xbee64e57	-0.44981644
102	0x3e5642f0	0.20923972
103	0xbe3b221b	-0.18274729
104	0x3dac804f	0.084229104
105	0x3e02aa63	0.1276031
106	0xbec175e1	-0.37785247
107	0x3e3c59c2	0.18393615
108	0xbd2c7885	-0.042107124
109	0xbd1aa5be	-0.03775572
110	0xbe1a25b5	-0.15053447
111	0xbec89887	-0.3917887
112	0xbec80cbc	-0.39072216
113	0xbe512150	-0.20422864
114	0x3c199272	0.009373294
115	0xbef95226	-0.48695487
116	0x3e08355d	0.13301606
117	0xbe40fb9c	-0.18845981
118	0x3ec0a037	0.37622234
119	0x3e8956fa	0.2682417
120	0x3e0ef1e1	0.13959457
121	0x3da4c92b	0.08046182
122	0xbe524f45	-0.20538051
123	0xbe3a0084	-0.18164259
124	0x3ebc7cdf	0.3681402
125	0x3eacedc5	0.33775154
126	0x3eb29192	0.34876686
127	0x3e0e1620	0.13875628

model.2.weight f4 [128, 128]
0	0xbca58883	-0.020206695
1	0x3c11e5b3	0.008904862
2	0xbccd31f0	-0.025048226
3	0x3d673eec	0.05645649
4	0xbd341f5c	-0.04397522
5	0x3e30b357	0.17255913
6	0x3d0fac74	0.035076573
7	0x3e60b46b	0.21943824
8	0xbe2ddee3	-0.16979556
9	0xbd6833e5	-0.056690115
10	0x3bcb9118	0.006212365
11	0xbc42873b	-0.011873062
12	0x3e400477	0.18751703
13	0xbf0c34aa	-0.5476786
14	0x3de3ab07	0.11116605
15	0x3e44b470	0.19209456
16	0x3f53e7b5	0.8277543
17	0x3f0fb1ed	0.5613087
18	0xbeea236a	-0.45730144
19	0xbd155f35	-0.03646775
20	0xbda208be	-0.07911824
21	0xbc481ac8	-0.012213416
22	0xbec5b2dc	-0.3861302
23	0x3bfa9140	0.0076467097
24	0x3db0402d	0.086059906
25	0xbda284d1	-0.07935489
26	0xbec8a425	-0.39187732
27	0x3ab357b2	0.0013682751
28	0x3cefdef7	0.029281123
29	0xbb10b4e6	-0.002208048
30	0xbefabd3e	-0.48972505
31	0x3c5d776c	0.013517242
32	0x3d95d8d9	0.07316751
33	0xbc128250	-0.008942202
34	0x3c08d453	0.008351403
35	0xbd6a5854	-0.057213143
36	0xbe6531b2	-0.22382239
37	0xbdb39414	-0.08768478
38	0xbe49d867	-0.19711457
39	0x3e568b34	0.2095154
40	0xbee2822f	-0.44239947
41	0x3eac8ae5	0.33699718
42	0xbe89494c	-0.26813734
43	0xbd856773	-0.06513872
44	0xbdd12bc4	-0.10213426
45	0x3f0ff4e4	0.5623305
46	0x3e4f524b	0.20246236
47	0x3e047605	0.12935646
48	0xbdae90ac	-0.08523688
49	0x3e14c6fe	0.14529034
50	0xbe6d0399	-0.23145904
51	0xbce4e76c	-0.027942382
52	0x3deaf8ba	0.11473222
53	0x3e06e1a2	0.1317201
54	0xbe4cf8d1	-0.20016791
55	0xbc3fffa6	-0.011718666
56	0xbe2914a0	-0.16511774
57	0x3daf7c9e	0.08568691
58	0xbca228d5	-0.01979486
59	0xbd2bf70e	-0.041983657
60	0x3df247d2	0.11830105
61	0xbc253340	-0.01008302
62	0xbe8a714b	-0.2703956
63	0xbd182087	-0.037140395
64	0x3da968b9	0.082719274
65	0xbdefe21a	-0.11713047
66	0x3ca2651e	0.019823607
67	0xbd76fc95	-0.060299475
68	0x3c69696f	0.014246329
69	0xbd8e891e	-0.06959747
70	0xbf957093	-1.167498
71	0x3ea6103c	0.3243426
72	0x3d06526c	0.032793447
73	0x3e0fd4b7	0.14045988
74	0xbbe2e7f4	-0.0069246236
75	0xbe1fa68b	-0.15590875
76	0xbc8aa37c	-0.016923659
77	0xbd1b2382	-0.03787566
78	0xbdcfa5c3	-0.101390384
79	0x3ad7c5a6	0.0016462102
80	0x3d96bc6e	0.07360159
81	0xbb82867b	-0.0039833165
82	0x3eb83f03	0.35985574
83	0xbeb81d32	-0.35959774
84	0x3e868fca	0.26281577
85	0x3ec9ffdd	0.3945302
86	0xbf3fe162	-0.7495328
87	0x3e1d5d62	0.15367654
88	0x3dfb4767	0.12269478
89	0xbd06c49a	-0.032902338
90	0xbd949f65	-0.072569646
91	0x3bc25ca0	0.005931452
92	0xbdf87ef3	-0.12133589
93	0x3ed289fc	0.411209
94	0x3f444788	0.7667165
95	0x3d76fa7a	0.060297467
96	0x3c9d7700	0.019221783
97	0x3e459eb0	0.19298816
98	0x3ed04b57	0.4068248
99	0xbd8d0ff6	-0.0688781
100	0x3b8d0490	0.0043035224
101	0xbde87b6a	-0.11351664
102	0x3e082fce	0.13299486
103	0xbd199693	-0.037497114
104	0x3dae2bfb	0.08504482
105	0x3e17d1ab	0.14826076
106	0xbdef79ad	-0.1169313
107	0x3e67ec97	0.22648846
108	0x3cc51907	0.024059786
109	0xbcfda96c	-0.030964576
110	0x3a68a01c	0.0008873956
111	0xbb333440	-0.0027344376
112	0xbcf99e4c	-0.03047099
113	0xbdb05ef0	-0.08611858
114	0x3d2bcfc3	0.041946184
115	0xbf617294	-0.8806546
116	0xbd4776ab	-0.048697155
117	0x3ebf5704	0.37371075
118	0x3e84ed4b	0.2596229
119	0x3ea81421	0.32827857
120	0x3e112123	0.14172797
121	0x3d914d82	0.070948616
122	0xbe7f098b	-0.24905984
123	0xbd9ebe19	-0.07751102
124	0x3cb9e026	0.02268989
125	0xbecf6210	-0.40504503
126	0xbeee06c0	-0.46489525
127	0x3e83ef2e	0.25768417
128	0xbd99390b	-0.07481583
129	0xbc44fea0	-0.012023598
130	0x3d324eaa	0.04353205
131	0xbe0006f0	-0.12502646
132	0xbd8cf091	-0.06881822
133	0xbc9bd86b	-0.019024095
134	0xbcc6bad8	-0.024259016
135	0xbd17e5b8	-0.03708431
136	0x3c669d00	0.014075518
137	0xbbb0dc50	-0.005397357
138	0xbde33c14	-0.11095443
139	0x3d314c76	0.04328581
140	0xbdb80133	-0.08984604
141	0xbd2d1e1c	-0.042265043
142	0xbcbd694f	-0.023121504
143	0xbd266d49	-0.040631566
144	0x3ce7a052	0.028274689
145	0x3da85e9b	0.082211696
146	0xbdaa34c9	-0.08310849
147	0x3d3cd60e	0.046102576
148	0xbd62cb0e	-0.05536943
149	0x3d06eb81	0.032939438
150	0xbdeb4843	-0.11488392
151	0xbd355127	-0.044266846
152	0xbccd0368	-0.025026038
153	0xbd9c60f4	-0.0763568
154	0xbe2c8d37	-0.16850744
155	0xbd69dc19	-0.057094667
156	0x3d42f996	0.047601305
157	0xbd272c81	-0.040813927
158	0xbd58ac65	-0.052898783
159	0xbcd45ada	-0.025922228
160	0x3a18da00	0.00058308244
161	0xbd7d111a	-0.061783887
162	0xbd8a16e6	-0.06742649
163	0xbd469c67	-0.048489
164	0xbbd37485	-0.006453099
165	0xbd94e77e	-0.07270716
166	0xbda89d2b	-0.082331024
167	0x3bf08fe0	0.00734137
168	0xbd81d67a	-0.06339736
169	0xbdf02e36	-0.11727564
170	0x3cc2f994	0.023800649
171	0xbdb29c2d	-0.087211944
172	0xbc7fd064	-0.015613649
173	0x3d8404ce	0.06446229
174	0xbd827d82	-0.06371595
175	0xbdecb076	-0.11557095
176	0x3d0d4b8c	0.034495875
177	0x3ce70e68	0.028205112
178	0x3cb63e20	0.02224642
179	0xbc27e2da	-0.010246957
180	0x3d1da5d2	0.038488217
181	0xbd800dc5	-0.06252626
182	0x3d16687c	0.036720738
183	0x3d47af6c	0.04875128
184	0xbd486164	-0.048921004
185	0xbd8e889c	-0.0695965
186	0x3bec9d68	0.0072209127
187	0xbb9b82d0	-0.0047458187
188	0xbd12db58	-0.035853714
189	0xbcb7eb30	-0.022451013
190	0xbcfde82f	-0.030994503
191	0xbdded332	-0.10880126
192	0x3b82303e	0.003973036
193	0x3d7c26b9	0.061560366
194	0xbdc73506	-0.0972691
195	0xbaf463c0	-0.001864545
196	0x3d2f973b	0.042868834
197	0xbce4f3c0	-0.02794826
198	0x3d35f6e2	0.0444249
199	0xbc8148b8	-0.015781745
200	0xbd76ed6f	-0.060285028
201	0x3d1baf80	0.038009167
202	0xbd48a626	-0.048986576
203	0xbd274e84	-0.040846363
204	0xbbc7afb0	-0.0060939416
205	0xbd452a1e	-0.04813587
206	0xbd7851ba	-0.060624816
207	0xbceb5149	-0.028725283
208	0x3da4b59c	0.08042452
209	0xbc5ee3d4	-0.013604123
210	0x3d61289c	0.05497037
211	0xbb764280	-0.0037576258
212	0x3db6f922	0.08934237
213	0x3aabc5f6	0.0013105262
214	0x3d5259e4	0.051355258
215	0xbd46a39e	-0.04849588
216	0x3d7df522	0.062001355
217	0x3cb94a98	0.022618577
218	0xbd9ab9f9	-0.07555003
219	0x3d1c0a92	0.038096018
220	0x3d3bd5e2	0.04585827
221	0x3d535f5e	0.05160462
222	0xbd91d407	-0.07120519
223	0x3d0f5dda	0.035001613
224	0x3d639646	0.055563234
225	0xbdfa529f	-0.1222279
226	0xbd413cde	-0.047177188
227	0x3da45237	0.08023494
228	0x3d1a52de	0.037676685
229	0xbc4ca309	-0.0124900425
230	0x3d0d50d4	0.03450091
231	0x3d4aa342	0.0494721
232	0xbdadc752	-0.08485283
233	0x3d5a2a7c	0.053263173
234	0xbd440a88	-0.047861606
235	0xbdf7cb8b	-0.120993696
236	0xbc34c138	-0.011032395
237	0xbcfbc014	-0.030731238
238	0xbc1766ba	-0.0092408005
239	0x3d4559a6	0.0481812
240	0x3cf18a40	0.029484868
241	0xbd876a1c	-0.06612036
242	0x3dcb827d	0.09936998
243	0x3db214a1	0.08695341
244	0x3c51da95	0.012808462
245	0xbd2e38bf	-0.042534586
246	0xbc1c5b4d	-0.009543252
247	0xbd05ed34	-0.032696918
248	0x3d6f02a6	0.058352135
249	0xbcf77c0d	-0.03021052
250	0xbcd53014	-0.026023902
251	0xbce607b8	-0.028079852
252	0xbd686643	-0.05673815
253	0xbcbde6b8	-0.023181304
254	0x3d0a3f48	0.033751756
255	0x3cab9459	0.020944761

model.2.bias f4 [128]
0	0x3e1469d8	0.14493501
1	0xbd1b114b	-0.03785829
2	0x3d70f269	0.05882493
3	0x3e86c373	0.2632099
4	0x3d089ad9	0.0333508
5	0x3cbd91c7	0.023140801
6	0xbd59c21d	-0.053163636
7	0xbbd00775	-0.006348545
8	0x3d33795b	0.043816905
9	0xbdc1c116	-0.09460656
10	0x3e80f37e	0.2518577
11	0x3e725c47	0.23668014
12	0x3e644e09	0.22295393
13	0xbd3acca6	-0.045605324
14	0xbe55dd8a	-0.20885292
15	0xbb0391cd	-0.0020075918
16	0x3e0b76eb	0.13619582
17	0x3dd871ad	0.10568557
18	0xbde20610	-0.110363126
19	0x3d97d106	0.07412915
20	0xbd474e76	-0.04865881
21	0xbd870970	-0.06593597
22	0x3d8ad177	0.067782335
23	0x3d84245b	0.06452247
24	0xbe041e43	-0.12902169
25	0xbc6076bf	-0.013700186
26	0x3dcba059	0.09942693
27	0x3c264a09	0.010149487
28	0x3bde6907	0.0067874226
29	0xbdaa271f	-0.08308243
30	0x3d69ab87	0.057048347
31	0xbda232f3	-0.07919874
32	0x3e66f4f3	0.22554378
33	0x3e01e888	0.1268636
34	0x3b8f1113	0.004366049
35	0xbdd0e331	-0.10199583
36	0xbbec3587	-0.0072085294
37	0x3dc143e1	0.09436775
38	0xbd432202	-0.047639854
39	0xbdc8c53e	-0.09803246
40	0xbd963644	-0.07334569
41	0xbd8a5d78	-0.06756109
42	0x3ba273a3	0.0049576326
43	0xbdb7a52b	-0.0896705
44	0xbda1c28e	-0.078984365
45	0x3ae59d58	0.0017518206
46	0x3e096335	0.1341675
47	0x3e4a5c44	0.19761759
48	0xbd1181e6	-0.03552427
49	0xbd43f264	-0.047838584
50	0xbdb0b5c2	-0.086284176
51	0xbe1388df	-0.14407681
52	0x3de4f554	0.11179605
53	0xbdb38616	-0.08765809
54	0xbd8a4339	-0.06751103
55	0x3cb6b259	0.02230184
56	0x3e1513ed	0.14558382
57	0xbdef64c3	-0.11689141
58	0xbc7a0b43	-0.015261474
59	0xbd8e1614	-0.06937805
60	0x3c508426	0.012726819
61	0xbdbd03ad	-0.09229217
62	0xbd10c33e	-0.035342447
63	0xbd2563c1	-0.040378336
64	0x3d94f3e0	0.07273078
65	0xbd827c66	-0.06371383
66	0xbcb9e833	-0.022693729
67	0x3db947b3	0.09046879
68	0xbe3928ef	-0.18082021
69	0xbd6457c9	-0.05574778
70	0xbd9c65b0	-0.07636583
71	0xbd237ba7	-0.039912846
72	0x3d63884b	0.0555499
73	0xbde648de	-0.11244367
74	0xbcfe0b20	-0.031011164
75	0xbdbbc78e	-0.091689214
76	0x3cdefa1e	0.027218875
77	0xbda3114e	-0.07962285
78	0x3c889e98	0.016677186
79	0xbddd4662	-0.1080444
80	0xbd62a50d	-0.055333186
81	0x3d93086f	0.07179343
82	0xbd21f9f1	-0.039545003
83	0x3bb50e16	0.005525361
84	0x3e3e905f	0.1860976
85	0xbd2d8729	-0.042365227
86	0xbc32e63f	-0.010919153
87	0xbc3e4f59	-0.011615598
88	0xbdedb726	-0.116071984
89	0xbd029d6e	-0.031888418
90	0xbc297621	-0.0103431055
91	0xbdae3010	-0.08505261
92	0x3d1e4896	0.038643442
93	0xbc1d3812	-0.009595888
94	0x3c9c4639	0.019076454
95	0xbaea6c5a	-0.0017885074
96	0xbceea180	-0.029129744
97	0x3ced9b49	0.02900471
98	0x3d2c29e6	0.042032145
99	0xbd955f3d	-0.07293556
100	0xbd903c1b	-0.07042714
101	0xbd3572ba	-0.044298865
102	0x3cfa7e7c	0.03057789
103	0x3d8e1ed5	0.069394745
104	0xbd3fb393	-0.046802115
105	0xbc88e85d	-0.016712362
106	0xbd639ba6	-0.05556836
107	0x3e2fbfde	0.17163035
108	0x3e05d1e1	0.13068344
109	0xbdd9156a	-0.105997875
110	0xbdaa0a51	-0.08302749
111	0xbd86d0d8	-0.065828025
112	0x3d30fdbf	0.04321074
113	0x3dcc8f80	0.09988308
114	0xbd2fdf0c	-0.042937323
115	0xbdc57749	-0.096418925
116	0x3c0a79e9	0.008451917
117	0x3e868212	0.2627111
118	0xbd9dc6e1	-0.07703949
119	0xbb28e8f6	-0.0025773621
120	0xbd2fb95b	-0.042901378
121	0xbdac4301	-0.084112175
122	0x3e1e7cfe	0.15477368
123	0x3da4edab	0.08053144
124	0xbce6fde6	-0.02819724
125	0xbc969f8d	-0.018386627
126	0xbdc47bf6	-0.09593956
127	0xbd3823d5	-0.044956047

model.4.weight f4 [3, 128]
0	0x3e345a14	0.17612487
1	0x3cc61e8a	0.024184484
2	0x3e3b0357	0.18262993
3	0x3e2fede1	0.17180587
4	0xbe92c17c	-0.28663242
5	0x3ad08386	0.0015908338
6	0xbd881418	-0.066444576
7	0xbc048ae0	-0.008089751
8	0xbe8eb817	-0.27874824
9	0xbd71684b	-0.058937352
10	0x3e287a0f	0.16452812
11	0x3e10f655	0.14156468
12	0x3e0f91df	0.14020489
13	0xbd8e8b2a	-0.06960137
14	0xbe4836c2	-0.19552138
15	0xbca869ee	-0.020558324
16	0x3d8a9b22	0.067678705
17	0xbe8e10d1	-0.27747205
18	0x3d3869fe	0.045022957
19	0x3e363532	0.1779373
20	0x3cae837e	0.021302935
21	0x3d452bed	0.048137594
22	0xbe1fc73c	-0.15603346
23	0x3e74d1cf	0.2390816
24	0x3dd4dded	0.103938915
25	0x3bdb3e0f	0.0066907476
26	0x3e132790	0.1437056
27	0xbe701f47	-0.23449431
28	0xbd0910a0	-0.03346312
29	0xbd1c9e05	-0.038236637
30	0xbc9e0c21	-0.019292893
31	0xbd483872	-0.048881955
32	0x3e0b23d9	0.13587894
33	0x3e150cfd	0.14555736
34	0xbd824a3a	-0.06361814
35	0x3d7917a6	0.06081357
36	0x3d03e360	0.032199264
37	0xbe678b39	-0.22611703
38	0xbd08e0aa	-0.03341738
39	0xbd92044e	-0.07129727
40	0xbccba894	-0.024860658
41	0x3ce0d431	0.02744493
42	0x3b93f5b0	0.004515372
43	0xbd8fa662	-0.07014157
44	0x3d46d186	0.04853966
45	0xbd84c44a	-0.06482752
46	0x3e0980fd	0.13428111
47	0x3e106a36	0.14103016
48	0xbc44340f	-0.011975302
49	0x3d8570db	0.06515666
50	0xbb4fa3b0	-0.0031683259
51	0x3c71a4ef	0.014748796
52	0x3dc6e009	0.097107
53	0xbbdc06bd	-0.0067146705
54	0xbca6daac	-0.020367943
55	0x3c4940c7	0.0122835105
56	0x3e3b84be	0.18312356
57	0x3d8cab7e	0.06868647
58	0x3dd3628e	0.10321532
59	0xbcfa4d76	-0.030554514
60	0xbb9efd6a	-0.0048519867
61	0x3bf27d1a	0.007400167
62	0x3ef54901	0.4790726
63	0xbd48d312	-0.049029417
64	0x3dded7fd	0.1088104
65	0x3e837a2d	0.2567915
66	0xbe9be9da	-0.30451852
67	0xbde2f218	-0.11081332
68	0x3e3c1872	0.183687
69	0xbc8cb2eb	-0.017175158
70	0xbbdb02c2	-0.0066836784
71	0x3d51dc9c	0.05123578
72	0x3e1b91ea	0.1519238
73	0xbeeea778	-0.46612144
74	0xbdad3101	-0.084566124
75	0xbd35932f	-0.04432982
76	0xbe90338f	-0.28164336
77	0x3ca97316	0.02068476
78	0xbce4afb3	-0.027915811
79	0x3b45a89f	0.003016032
80	0xbcf2f08d	-0.02965572
81	0x3e021ddf	0.12706707
82	0xbcf1cdcb	-0.029517075
83	0xbd9af2d6	-0.075658485
84	0x3e1d783b	0.15377896
85	0x3ca633c6	0.02028836
86	0xbd2d1e57	-0.042265262
87	0x3ea3ddc9	0.32005146
88	0xbd8069ce	-0.06270181
89	0x3d5f25bd	0.05447935
90	0xbd9228c1	-0.071366794
91	0x3d32349a	0.043507196
92	0x3dda9ae8	0.10674077
93	0xbe573cfa	-0.21019354
94	0x3d42bc22	0.0475427
95	0x3b462004	0.0030231485
96	0xbd84ac7a	-0.0647821
97	0xbe17a706	-0.14809808
98	0xbf04f116	-0.5193037
99	0x3e8599e9	0.26093987
100	0xbd565b8d	-0.052333403
101	0x3c8dd1f2	0.017312024
102	0xbd17b252	-0.037035294
103	0x3dd66e89	0.10470302
104	0x3c83dfdb	0.016097954
105	0x3d22c75e	0.039740913
106	0xbcacd426	-0.021097254
107	0x3df06712	0.11738409
108	0x3e0cd1ad	0.1375186
109	0x3d63675c	0.055518493
110	0xbc089de8	-0.008338429
111	0xbc463744	-0.012098137
112	0xbc622e5e	-0.013805
113	0x3e195530	0.14973903
114	0xbf3735d5	-0.71566516
115	0x3da3f2f7	0.08005326
116	0xbe901616	-0.2814185
117	0x3e1d44c0	0.15358257
118	0xbce187e9	-0.027530627
119	0xbdd5e123	-0.10443332
120	0xbd68b5a6	-0.05681386
121	0x3c06fdce	0.008239223
122	0x3dd83751	0.10557426
123	0x3e4eba6a	0.20188299
124	0xbd61f200	-0.05516243
125	0x3d4c8001	0.04992676
126	0x3c0c5c48	0.008566923
127	0x3b037b93	0.002006267
128	0x3da25d5e	0.07927965
129	0xbcd97de1	-0.026549282
130	0x3e51e650	0.20498013
131	0x3df901e8	0.12158567
132	0xbedecc00	-0.43515015
133	0xbd1e7c34	-0.038692668
134	0xbc7dc959	-0.0154899
135	0xbdb3c174	-0.08777133
136	0xbe9884ce	-0.29788822
137	0x3d02508e	0.031815104
138	0x3e36570b	0.17806642
139	0x3e073933	0.13205414
140	0x3e15642b	0.14588992
141	0xbba368af	-0.0049868445
142	0xbe6aa411	-0.22914149
143	0x3bd78379	0.006576952
144	0x3d839891	0.06425584
145	0xbe990a70	-0.29890776
146	0x3d665a8c	0.056238696
147	0x3d838596	0.06421964
148	0xbd006319	-0.031344507
149	0x3d18f06d	0.037338663
150	0xbe1a7390	-0.15083146
151	0x3e4df548	0.20113099
152	0xbd871090	-0.06594956
153	0x3cd130d3	0.025535977
154	0x3dddabf0	0.1082381
155	0xbe3bd156	-0.18341574
156	0x3d41a319	0.047274683
157	0x3d091d60	0.03347528
158	0x3d164f0f	0.03669649
159	0xbd69e42d	-0.05710237
160	0x3e3b5a0e	0.18296072
161	0x3e224104	0.15845114
162	0x3d2c6417	0.04208764
163	0x3bffafd2	0.007802942
164	0xbce06a4a	-0.027394433
165	0xbe4a8fb1	-0.19781376
166	0x3b2d022e	0.0026399004
167	0x3da9f707	0.0829907
168	0x3d960961	0.07326008
169	0xbcb971ec	-0.02263733
170	0xbc5417a9	-0.012945094
171	0x3ae73a7f	0.0017641335
172	0x3d853b85	0.06505493
173	0x3c25f057	0.010128102
174	0x3df4cfce	0.11953698
175	0x3d9936e0	0.0748117
176	0xbd859572	-0.06522645
177	0xbd589414	-0.052875593
178	0xb93dae75	-0.00018089435
179	0x3dca9cad	0.09893165
180	0x3db2ffa1	0.087401636
181	0xbd99084a	-0.07472284
182	0xbd7da18a	-0.061921634
183	0x3d8089be	0.06276272
184	0x3e1d23ef	0.15345739
185	0x3d8ed2cf	0.06973802
186	0x3e23c356	0.15992483
187	0xbd422589	-0.047399078
188	0x3ce04068	0.027374461
189	0xbbba9817	-0.0056944
190	0x3edf876a	0.43658
191	0x3cf541a3	0.029938525
192	0x3e37a0ce	0.17932436
193	0x3e6a95e7	0.22908746
194	0xbeb979bd	-0.3622569
195	0xbe05c969	-0.13065113
196	0xbcf94c43	-0.030431872
197	0x3c2239a4	0.009901438
198	0x3b14d2f4	0.0022708746
199	0xbc5d3e15	-0.013503571
200	0x3e18b081	0.14911081
201	0x3dcb830b	0.09937104
202	0xbc8d63ed	-0.017259562
203	0xbcc9c2ce	-0.024629023
204	0xbe8829e9	-0.26594475
205	0x3ba59755	0.0050534406
206	0xbd2e2b31	-0.04252166
207	0x3d0c4ba0	0.03425181
208	0xbd19d703	-0.037558567
209	0x3e40b260	0.18818045
210	0x3d2f05f0	0.04273027
211	0xbb84f2b2	-0.004057252
212	0x3e4b9d52	0.19884232
213	0xbcf610e0	-0.030037344
214	0xbd1a28d0	-0.037636578
215	0x3ebb4fcd	0.3658432
216	0x3d3d5232	0.046220966
217	0xbc4edd5e	-0.01262602
218	0x3ccdc1f8	0.025116906
219	0x3b8cc450	0.004295863
220	0x3d9d8a0d	0.07692347
221	0xbe5d6b3c	-0.21622938
222	0x3e49de23	0.19713645
223	0xbdf22b53	-0.1182467
224	0xbc4c48ee	-0.01246856
225	0xbe49b0d5	-0.19696362
226	0xbef891a5	-0.48548618
227	0x3e088fe7	0.13336144
228	0xbc2c8e60	-0.010531992
229	0xbda76176	-0.08172886
230	0xbc2c48a0	-0.010515362
231	0x3d949cae	0.07256447
232	0xbc70b9ab	-0.014692704
233	0xbd4caee6	-0.049971484
234	0xbd837af7	-0.06419938
235	0x3e1cd82b	0.15316837
236	0x3e2048a6	0.15652713
237	0x3d16658c	0.036717936
238	0xbcedbed9	-0.029021667
239	0x3d41f83b	0.04735587
240	0x3d842c13	0.06453719
241	0x3e390f19	0.18072166
242	0xbe85e804	-0.26153576
243	0x3bdfab30	0.006825827
244	0xbe8731d7	-0.26405212
245	0x3e37e043	0.17956643
246	0x3d68c708	0.056830436
247	0xbcd6ec3f	-0.026235698
248	0x3cac2db3	0.021017885
249	0xbd96c529	-0.07361824
250	0x3dd28a5d	0.10280297
251	0x3e2723e0	0.16322279
252	0xbbf49283	-0.0074637546
253	0x3d705493	0.058674406
254	0xbcef6136	-0.029221158
255	0x3d046289	0.032320533

model.4.bias f4 [3]
0	0x3d82985b	0.06376716
1	0x3d8d5348	0.0690065
2	0x3da564b0	0.08075845
